node {
  name: "Placeholder"
  op: "Placeholder"
  device: "/device:CPU:0"
  attr {
    key: "_output_shapes"
    value {
      list {
        shape {
          dim {
            size: 128
          }
          dim {
            size: 64
          }
          dim {
            size: 1
          }
        }
      }
    }
  }
  attr {
    key: "dtype"
    value {
      type: DT_FLOAT
    }
  }
  attr {
    key: "shape"
    value {
      shape {
        dim {
          size: 128
        }
        dim {
          size: 64
        }
        dim {
          size: 1
        }
      }
    }
  }
}
node {
  name: "Placeholder_1"
  op: "Placeholder"
  device: "/device:CPU:0"
  attr {
    key: "_output_shapes"
    value {
      list {
        shape {
          dim {
            size: 1
          }
        }
      }
    }
  }
  attr {
    key: "dtype"
    value {
      type: DT_INT64
    }
  }
  attr {
    key: "shape"
    value {
      shape {
        dim {
          size: 1
        }
      }
    }
  }
}
node {
  name: "random_shuffle_queue"
  op: "RandomShuffleQueue"
  device: "/device:CPU:0"
  attr {
    key: "_output_shapes"
    value {
      list {
        shape {
          dim {
            size: 2
          }
        }
      }
    }
  }
  attr {
    key: "capacity"
    value {
      i: 80
    }
  }
  attr {
    key: "component_types"
    value {
      list {
        type: DT_FLOAT
        type: DT_INT64
      }
    }
  }
  attr {
    key: "container"
    value {
      s: ""
    }
  }
  attr {
    key: "min_after_dequeue"
    value {
      i: 40
    }
  }
  attr {
    key: "seed"
    value {
      i: 0
    }
  }
  attr {
    key: "seed2"
    value {
      i: 0
    }
  }
  attr {
    key: "shapes"
    value {
      list {
        shape {
          dim {
            size: 128
          }
          dim {
            size: 64
          }
          dim {
            size: 1
          }
        }
        shape {
          dim {
            size: 1
          }
        }
      }
    }
  }
  attr {
    key: "shared_name"
    value {
      s: ""
    }
  }
}
node {
  name: "random_shuffle_queue_enqueue"
  op: "QueueEnqueue"
  input: "random_shuffle_queue"
  input: "Placeholder"
  input: "Placeholder_1"
  device: "/device:CPU:0"
  attr {
    key: "Tcomponents"
    value {
      list {
        type: DT_FLOAT
        type: DT_INT64
      }
    }
  }
  attr {
    key: "_class"
    value {
      list {
        s: "loc:@random_shuffle_queue"
      }
    }
  }
  attr {
    key: "timeout_ms"
    value {
      i: -1
    }
  }
}
node {
  name: "Placeholder_2"
  op: "Placeholder"
  device: "/device:CPU:0"
  attr {
    key: "_output_shapes"
    value {
      list {
        shape {
          dim {
            size: 128
          }
          dim {
            size: 64
          }
          dim {
            size: 1
          }
        }
      }
    }
  }
  attr {
    key: "dtype"
    value {
      type: DT_FLOAT
    }
  }
  attr {
    key: "shape"
    value {
      shape {
        dim {
          size: 128
        }
        dim {
          size: 64
        }
        dim {
          size: 1
        }
      }
    }
  }
}
node {
  name: "Placeholder_3"
  op: "Placeholder"
  device: "/device:CPU:0"
  attr {
    key: "_output_shapes"
    value {
      list {
        shape {
          dim {
            size: 1
          }
        }
      }
    }
  }
  attr {
    key: "dtype"
    value {
      type: DT_INT64
    }
  }
  attr {
    key: "shape"
    value {
      shape {
        dim {
          size: 1
        }
      }
    }
  }
}
node {
  name: "random_shuffle_queue_1"
  op: "RandomShuffleQueue"
  device: "/device:CPU:0"
  attr {
    key: "_output_shapes"
    value {
      list {
        shape {
          dim {
            size: 2
          }
        }
      }
    }
  }
  attr {
    key: "capacity"
    value {
      i: 16
    }
  }
  attr {
    key: "component_types"
    value {
      list {
        type: DT_FLOAT
        type: DT_INT64
      }
    }
  }
  attr {
    key: "container"
    value {
      s: ""
    }
  }
  attr {
    key: "min_after_dequeue"
    value {
      i: 8
    }
  }
  attr {
    key: "seed"
    value {
      i: 0
    }
  }
  attr {
    key: "seed2"
    value {
      i: 0
    }
  }
  attr {
    key: "shapes"
    value {
      list {
        shape {
          dim {
            size: 128
          }
          dim {
            size: 64
          }
          dim {
            size: 1
          }
        }
        shape {
          dim {
            size: 1
          }
        }
      }
    }
  }
  attr {
    key: "shared_name"
    value {
      s: ""
    }
  }
}
node {
  name: "random_shuffle_queue_1_enqueue"
  op: "QueueEnqueue"
  input: "random_shuffle_queue_1"
  input: "Placeholder_2"
  input: "Placeholder_3"
  device: "/device:CPU:0"
  attr {
    key: "Tcomponents"
    value {
      list {
        type: DT_FLOAT
        type: DT_INT64
      }
    }
  }
  attr {
    key: "_class"
    value {
      list {
        s: "loc:@random_shuffle_queue_1"
      }
    }
  }
  attr {
    key: "timeout_ms"
    value {
      i: -1
    }
  }
}
node {
  name: "random_shuffle_queue_DequeueMany/n"
  op: "Const"
  device: "/device:CPU:0"
  attr {
    key: "_output_shapes"
    value {
      list {
        shape {
        }
      }
    }
  }
  attr {
    key: "dtype"
    value {
      type: DT_INT32
    }
  }
  attr {
    key: "value"
    value {
      tensor {
        dtype: DT_INT32
        tensor_shape {
        }
        int_val: 5
      }
    }
  }
}
node {
  name: "random_shuffle_queue_DequeueMany"
  op: "QueueDequeueMany"
  input: "random_shuffle_queue"
  input: "random_shuffle_queue_DequeueMany/n"
  device: "/device:CPU:0"
  attr {
    key: "_class"
    value {
      list {
        s: "loc:@random_shuffle_queue"
      }
    }
  }
  attr {
    key: "_output_shapes"
    value {
      list {
        shape {
          dim {
            size: 5
          }
          dim {
            size: 128
          }
          dim {
            size: 64
          }
          dim {
            size: 1
          }
        }
        shape {
          dim {
            size: 5
          }
          dim {
            size: 1
          }
        }
      }
    }
  }
  attr {
    key: "component_types"
    value {
      list {
        type: DT_FLOAT
        type: DT_INT64
      }
    }
  }
  attr {
    key: "timeout_ms"
    value {
      i: -1
    }
  }
}
node {
  name: "random_shuffle_queue_1_DequeueMany/n"
  op: "Const"
  device: "/device:CPU:0"
  attr {
    key: "_output_shapes"
    value {
      list {
        shape {
        }
      }
    }
  }
  attr {
    key: "dtype"
    value {
      type: DT_INT32
    }
  }
  attr {
    key: "value"
    value {
      tensor {
        dtype: DT_INT32
        tensor_shape {
        }
        int_val: 1
      }
    }
  }
}
node {
  name: "random_shuffle_queue_1_DequeueMany"
  op: "QueueDequeueMany"
  input: "random_shuffle_queue_1"
  input: "random_shuffle_queue_1_DequeueMany/n"
  device: "/device:CPU:0"
  attr {
    key: "_class"
    value {
      list {
        s: "loc:@random_shuffle_queue_1"
      }
    }
  }
  attr {
    key: "_output_shapes"
    value {
      list {
        shape {
          dim {
            size: 1
          }
          dim {
            size: 128
          }
          dim {
            size: 64
          }
          dim {
            size: 1
          }
        }
        shape {
          dim {
            size: 1
          }
          dim {
            size: 1
          }
        }
      }
    }
  }
  attr {
    key: "component_types"
    value {
      list {
        type: DT_FLOAT
        type: DT_INT64
      }
    }
  }
  attr {
    key: "timeout_ms"
    value {
      i: -1
    }
  }
}
node {
  name: "g_embedding_support_vectors/Module_0/Conv2d_Module_0/weights"
  op: "Variable"
  attr {
    key: "_output_shapes"
    value {
      list {
        shape {
          dim {
            size: 3
          }
          dim {
            size: 3
          }
          dim {
            size: 1
          }
          dim {
            size: 64
          }
        }
      }
    }
  }
  attr {
    key: "container"
    value {
      s: ""
    }
  }
  attr {
    key: "dtype"
    value {
      type: DT_FLOAT
    }
  }
  attr {
    key: "shape"
    value {
      shape {
        dim {
          size: 3
        }
        dim {
          size: 3
        }
        dim {
          size: 1
        }
        dim {
          size: 64
        }
      }
    }
  }
  attr {
    key: "shared_name"
    value {
      s: ""
    }
  }
}
node {
  name: "g_embedding_support_vectors/Module_0/Conv2d_Module_0/weights/Initializer/truncated_normal/shape"
  op: "Const"
  attr {
    key: "_class"
    value {
      list {
        s: "loc:@g_embedding_support_vectors/Module_0/Conv2d_Module_0/weights"
      }
    }
  }
  attr {
    key: "_output_shapes"
    value {
      list {
        shape {
          dim {
            size: 4
          }
        }
      }
    }
  }
  attr {
    key: "dtype"
    value {
      type: DT_INT32
    }
  }
  attr {
    key: "value"
    value {
      tensor {
        dtype: DT_INT32
        tensor_shape {
          dim {
            size: 4
          }
        }
        tensor_content: "\003\000\000\000\003\000\000\000\001\000\000\000@\000\000\000"
      }
    }
  }
}
node {
  name: "g_embedding_support_vectors/Module_0/Conv2d_Module_0/weights/Initializer/truncated_normal/mean"
  op: "Const"
  attr {
    key: "_class"
    value {
      list {
        s: "loc:@g_embedding_support_vectors/Module_0/Conv2d_Module_0/weights"
      }
    }
  }
  attr {
    key: "_output_shapes"
    value {
      list {
        shape {
        }
      }
    }
  }
  attr {
    key: "dtype"
    value {
      type: DT_FLOAT
    }
  }
  attr {
    key: "value"
    value {
      tensor {
        dtype: DT_FLOAT
        tensor_shape {
        }
        float_val: 0.0
      }
    }
  }
}
node {
  name: "g_embedding_support_vectors/Module_0/Conv2d_Module_0/weights/Initializer/truncated_normal/stddev"
  op: "Const"
  attr {
    key: "_class"
    value {
      list {
        s: "loc:@g_embedding_support_vectors/Module_0/Conv2d_Module_0/weights"
      }
    }
  }
  attr {
    key: "_output_shapes"
    value {
      list {
        shape {
        }
      }
    }
  }
  attr {
    key: "dtype"
    value {
      type: DT_FLOAT
    }
  }
  attr {
    key: "value"
    value {
      tensor {
        dtype: DT_FLOAT
        tensor_shape {
        }
        float_val: 0.10000000149
      }
    }
  }
}
node {
  name: "g_embedding_support_vectors/Module_0/Conv2d_Module_0/weights/Initializer/truncated_normal/TruncatedNormal"
  op: "TruncatedNormal"
  input: "g_embedding_support_vectors/Module_0/Conv2d_Module_0/weights/Initializer/truncated_normal/shape"
  attr {
    key: "T"
    value {
      type: DT_INT32
    }
  }
  attr {
    key: "_class"
    value {
      list {
        s: "loc:@g_embedding_support_vectors/Module_0/Conv2d_Module_0/weights"
      }
    }
  }
  attr {
    key: "_output_shapes"
    value {
      list {
        shape {
          dim {
            size: 3
          }
          dim {
            size: 3
          }
          dim {
            size: 1
          }
          dim {
            size: 64
          }
        }
      }
    }
  }
  attr {
    key: "dtype"
    value {
      type: DT_FLOAT
    }
  }
  attr {
    key: "seed"
    value {
      i: 0
    }
  }
  attr {
    key: "seed2"
    value {
      i: 0
    }
  }
}
node {
  name: "g_embedding_support_vectors/Module_0/Conv2d_Module_0/weights/Initializer/truncated_normal/mul"
  op: "Mul"
  input: "g_embedding_support_vectors/Module_0/Conv2d_Module_0/weights/Initializer/truncated_normal/TruncatedNormal"
  input: "g_embedding_support_vectors/Module_0/Conv2d_Module_0/weights/Initializer/truncated_normal/stddev"
  attr {
    key: "T"
    value {
      type: DT_FLOAT
    }
  }
  attr {
    key: "_class"
    value {
      list {
        s: "loc:@g_embedding_support_vectors/Module_0/Conv2d_Module_0/weights"
      }
    }
  }
  attr {
    key: "_output_shapes"
    value {
      list {
        shape {
          dim {
            size: 3
          }
          dim {
            size: 3
          }
          dim {
            size: 1
          }
          dim {
            size: 64
          }
        }
      }
    }
  }
}
node {
  name: "g_embedding_support_vectors/Module_0/Conv2d_Module_0/weights/Initializer/truncated_normal"
  op: "Add"
  input: "g_embedding_support_vectors/Module_0/Conv2d_Module_0/weights/Initializer/truncated_normal/mul"
  input: "g_embedding_support_vectors/Module_0/Conv2d_Module_0/weights/Initializer/truncated_normal/mean"
  attr {
    key: "T"
    value {
      type: DT_FLOAT
    }
  }
  attr {
    key: "_class"
    value {
      list {
        s: "loc:@g_embedding_support_vectors/Module_0/Conv2d_Module_0/weights"
      }
    }
  }
  attr {
    key: "_output_shapes"
    value {
      list {
        shape {
          dim {
            size: 3
          }
          dim {
            size: 3
          }
          dim {
            size: 1
          }
          dim {
            size: 64
          }
        }
      }
    }
  }
}
node {
  name: "g_embedding_support_vectors/Module_0/Conv2d_Module_0/weights/Assign"
  op: "Assign"
  input: "g_embedding_support_vectors/Module_0/Conv2d_Module_0/weights"
  input: "g_embedding_support_vectors/Module_0/Conv2d_Module_0/weights/Initializer/truncated_normal"
  attr {
    key: "T"
    value {
      type: DT_FLOAT
    }
  }
  attr {
    key: "_class"
    value {
      list {
        s: "loc:@g_embedding_support_vectors/Module_0/Conv2d_Module_0/weights"
      }
    }
  }
  attr {
    key: "_output_shapes"
    value {
      list {
        shape {
          dim {
            size: 3
          }
          dim {
            size: 3
          }
          dim {
            size: 1
          }
          dim {
            size: 64
          }
        }
      }
    }
  }
  attr {
    key: "use_locking"
    value {
      b: true
    }
  }
  attr {
    key: "validate_shape"
    value {
      b: true
    }
  }
}
node {
  name: "g_embedding_support_vectors/Module_0/Conv2d_Module_0/weights/read"
  op: "Identity"
  input: "g_embedding_support_vectors/Module_0/Conv2d_Module_0/weights"
  attr {
    key: "T"
    value {
      type: DT_FLOAT
    }
  }
  attr {
    key: "_class"
    value {
      list {
        s: "loc:@g_embedding_support_vectors/Module_0/Conv2d_Module_0/weights"
      }
    }
  }
  attr {
    key: "_output_shapes"
    value {
      list {
        shape {
          dim {
            size: 3
          }
          dim {
            size: 3
          }
          dim {
            size: 1
          }
          dim {
            size: 64
          }
        }
      }
    }
  }
}
node {
  name: "g_embedding_support_vectors/Module_0/Conv2d_Module_0/weights/Regularizer/l2_regularizer/scale"
  op: "Const"
  attr {
    key: "_class"
    value {
      list {
        s: "loc:@g_embedding_support_vectors/Module_0/Conv2d_Module_0/weights"
      }
    }
  }
  attr {
    key: "_output_shapes"
    value {
      list {
        shape {
        }
      }
    }
  }
  attr {
    key: "dtype"
    value {
      type: DT_FLOAT
    }
  }
  attr {
    key: "value"
    value {
      tensor {
        dtype: DT_FLOAT
        tensor_shape {
        }
        float_val: 3.99999989895e-05
      }
    }
  }
}
node {
  name: "g_embedding_support_vectors/Module_0/Conv2d_Module_0/weights/Regularizer/l2_regularizer/L2Loss"
  op: "L2Loss"
  input: "g_embedding_support_vectors/Module_0/Conv2d_Module_0/weights/read"
  attr {
    key: "T"
    value {
      type: DT_FLOAT
    }
  }
  attr {
    key: "_class"
    value {
      list {
        s: "loc:@g_embedding_support_vectors/Module_0/Conv2d_Module_0/weights"
      }
    }
  }
  attr {
    key: "_output_shapes"
    value {
      list {
        shape {
        }
      }
    }
  }
}
node {
  name: "g_embedding_support_vectors/Module_0/Conv2d_Module_0/weights/Regularizer/l2_regularizer"
  op: "Mul"
  input: "g_embedding_support_vectors/Module_0/Conv2d_Module_0/weights/Regularizer/l2_regularizer/scale"
  input: "g_embedding_support_vectors/Module_0/Conv2d_Module_0/weights/Regularizer/l2_regularizer/L2Loss"
  attr {
    key: "T"
    value {
      type: DT_FLOAT
    }
  }
  attr {
    key: "_class"
    value {
      list {
        s: "loc:@g_embedding_support_vectors/Module_0/Conv2d_Module_0/weights"
      }
    }
  }
  attr {
    key: "_output_shapes"
    value {
      list {
        shape {
        }
      }
    }
  }
}
node {
  name: "g_embedding_support_vectors/g_embedding_support_vectors/Module_0/Conv2d_Module_0/Conv2D"
  op: "Conv2D"
  input: "random_shuffle_queue_DequeueMany"
  input: "g_embedding_support_vectors/Module_0/Conv2d_Module_0/weights/read"
  attr {
    key: "T"
    value {
      type: DT_FLOAT
    }
  }
  attr {
    key: "_output_shapes"
    value {
      list {
        shape {
          dim {
            size: 5
          }
          dim {
            size: 126
          }
          dim {
            size: 62
          }
          dim {
            size: 64
          }
        }
      }
    }
  }
  attr {
    key: "data_format"
    value {
      s: "NHWC"
    }
  }
  attr {
    key: "padding"
    value {
      s: "VALID"
    }
  }
  attr {
    key: "strides"
    value {
      list {
        i: 1
        i: 1
        i: 1
        i: 1
      }
    }
  }
  attr {
    key: "use_cudnn_on_gpu"
    value {
      b: true
    }
  }
}
node {
  name: "g_embedding_support_vectors/Module_0/Conv2d_Module_0/BatchNorm/beta"
  op: "Variable"
  attr {
    key: "_output_shapes"
    value {
      list {
        shape {
          dim {
            size: 64
          }
        }
      }
    }
  }
  attr {
    key: "container"
    value {
      s: ""
    }
  }
  attr {
    key: "dtype"
    value {
      type: DT_FLOAT
    }
  }
  attr {
    key: "shape"
    value {
      shape {
        dim {
          size: 64
        }
      }
    }
  }
  attr {
    key: "shared_name"
    value {
      s: ""
    }
  }
}
node {
  name: "g_embedding_support_vectors/Module_0/Conv2d_Module_0/BatchNorm/beta/Initializer/zeros"
  op: "Const"
  attr {
    key: "_class"
    value {
      list {
        s: "loc:@g_embedding_support_vectors/Module_0/Conv2d_Module_0/BatchNorm/beta"
      }
    }
  }
  attr {
    key: "_output_shapes"
    value {
      list {
        shape {
          dim {
            size: 64
          }
        }
      }
    }
  }
  attr {
    key: "dtype"
    value {
      type: DT_FLOAT
    }
  }
  attr {
    key: "value"
    value {
      tensor {
        dtype: DT_FLOAT
        tensor_shape {
          dim {
            size: 64
          }
        }
        float_val: 0.0
      }
    }
  }
}
node {
  name: "g_embedding_support_vectors/Module_0/Conv2d_Module_0/BatchNorm/beta/Assign"
  op: "Assign"
  input: "g_embedding_support_vectors/Module_0/Conv2d_Module_0/BatchNorm/beta"
  input: "g_embedding_support_vectors/Module_0/Conv2d_Module_0/BatchNorm/beta/Initializer/zeros"
  attr {
    key: "T"
    value {
      type: DT_FLOAT
    }
  }
  attr {
    key: "_class"
    value {
      list {
        s: "loc:@g_embedding_support_vectors/Module_0/Conv2d_Module_0/BatchNorm/beta"
      }
    }
  }
  attr {
    key: "_output_shapes"
    value {
      list {
        shape {
          dim {
            size: 64
          }
        }
      }
    }
  }
  attr {
    key: "use_locking"
    value {
      b: true
    }
  }
  attr {
    key: "validate_shape"
    value {
      b: true
    }
  }
}
node {
  name: "g_embedding_support_vectors/Module_0/Conv2d_Module_0/BatchNorm/beta/read"
  op: "Identity"
  input: "g_embedding_support_vectors/Module_0/Conv2d_Module_0/BatchNorm/beta"
  attr {
    key: "T"
    value {
      type: DT_FLOAT
    }
  }
  attr {
    key: "_class"
    value {
      list {
        s: "loc:@g_embedding_support_vectors/Module_0/Conv2d_Module_0/BatchNorm/beta"
      }
    }
  }
  attr {
    key: "_output_shapes"
    value {
      list {
        shape {
          dim {
            size: 64
          }
        }
      }
    }
  }
}
node {
  name: "g_embedding_support_vectors/Module_0/Conv2d_Module_0/BatchNorm/moving_mean"
  op: "Variable"
  attr {
    key: "_output_shapes"
    value {
      list {
        shape {
          dim {
            size: 64
          }
        }
      }
    }
  }
  attr {
    key: "container"
    value {
      s: ""
    }
  }
  attr {
    key: "dtype"
    value {
      type: DT_FLOAT
    }
  }
  attr {
    key: "shape"
    value {
      shape {
        dim {
          size: 64
        }
      }
    }
  }
  attr {
    key: "shared_name"
    value {
      s: ""
    }
  }
}
node {
  name: "g_embedding_support_vectors/Module_0/Conv2d_Module_0/BatchNorm/moving_mean/Initializer/zeros"
  op: "Const"
  attr {
    key: "_class"
    value {
      list {
        s: "loc:@g_embedding_support_vectors/Module_0/Conv2d_Module_0/BatchNorm/moving_mean"
      }
    }
  }
  attr {
    key: "_output_shapes"
    value {
      list {
        shape {
          dim {
            size: 64
          }
        }
      }
    }
  }
  attr {
    key: "dtype"
    value {
      type: DT_FLOAT
    }
  }
  attr {
    key: "value"
    value {
      tensor {
        dtype: DT_FLOAT
        tensor_shape {
          dim {
            size: 64
          }
        }
        float_val: 0.0
      }
    }
  }
}
node {
  name: "g_embedding_support_vectors/Module_0/Conv2d_Module_0/BatchNorm/moving_mean/Assign"
  op: "Assign"
  input: "g_embedding_support_vectors/Module_0/Conv2d_Module_0/BatchNorm/moving_mean"
  input: "g_embedding_support_vectors/Module_0/Conv2d_Module_0/BatchNorm/moving_mean/Initializer/zeros"
  attr {
    key: "T"
    value {
      type: DT_FLOAT
    }
  }
  attr {
    key: "_class"
    value {
      list {
        s: "loc:@g_embedding_support_vectors/Module_0/Conv2d_Module_0/BatchNorm/moving_mean"
      }
    }
  }
  attr {
    key: "_output_shapes"
    value {
      list {
        shape {
          dim {
            size: 64
          }
        }
      }
    }
  }
  attr {
    key: "use_locking"
    value {
      b: true
    }
  }
  attr {
    key: "validate_shape"
    value {
      b: true
    }
  }
}
node {
  name: "g_embedding_support_vectors/Module_0/Conv2d_Module_0/BatchNorm/moving_mean/read"
  op: "Identity"
  input: "g_embedding_support_vectors/Module_0/Conv2d_Module_0/BatchNorm/moving_mean"
  attr {
    key: "T"
    value {
      type: DT_FLOAT
    }
  }
  attr {
    key: "_class"
    value {
      list {
        s: "loc:@g_embedding_support_vectors/Module_0/Conv2d_Module_0/BatchNorm/moving_mean"
      }
    }
  }
  attr {
    key: "_output_shapes"
    value {
      list {
        shape {
          dim {
            size: 64
          }
        }
      }
    }
  }
}
node {
  name: "g_embedding_support_vectors/Module_0/Conv2d_Module_0/BatchNorm/moving_variance"
  op: "Variable"
  attr {
    key: "_output_shapes"
    value {
      list {
        shape {
          dim {
            size: 64
          }
        }
      }
    }
  }
  attr {
    key: "container"
    value {
      s: ""
    }
  }
  attr {
    key: "dtype"
    value {
      type: DT_FLOAT
    }
  }
  attr {
    key: "shape"
    value {
      shape {
        dim {
          size: 64
        }
      }
    }
  }
  attr {
    key: "shared_name"
    value {
      s: ""
    }
  }
}
node {
  name: "g_embedding_support_vectors/Module_0/Conv2d_Module_0/BatchNorm/moving_variance/Initializer/ones"
  op: "Const"
  attr {
    key: "_class"
    value {
      list {
        s: "loc:@g_embedding_support_vectors/Module_0/Conv2d_Module_0/BatchNorm/moving_variance"
      }
    }
  }
  attr {
    key: "_output_shapes"
    value {
      list {
        shape {
          dim {
            size: 64
          }
        }
      }
    }
  }
  attr {
    key: "dtype"
    value {
      type: DT_FLOAT
    }
  }
  attr {
    key: "value"
    value {
      tensor {
        dtype: DT_FLOAT
        tensor_shape {
          dim {
            size: 64
          }
        }
        float_val: 1.0
      }
    }
  }
}
node {
  name: "g_embedding_support_vectors/Module_0/Conv2d_Module_0/BatchNorm/moving_variance/Assign"
  op: "Assign"
  input: "g_embedding_support_vectors/Module_0/Conv2d_Module_0/BatchNorm/moving_variance"
  input: "g_embedding_support_vectors/Module_0/Conv2d_Module_0/BatchNorm/moving_variance/Initializer/ones"
  attr {
    key: "T"
    value {
      type: DT_FLOAT
    }
  }
  attr {
    key: "_class"
    value {
      list {
        s: "loc:@g_embedding_support_vectors/Module_0/Conv2d_Module_0/BatchNorm/moving_variance"
      }
    }
  }
  attr {
    key: "_output_shapes"
    value {
      list {
        shape {
          dim {
            size: 64
          }
        }
      }
    }
  }
  attr {
    key: "use_locking"
    value {
      b: true
    }
  }
  attr {
    key: "validate_shape"
    value {
      b: true
    }
  }
}
node {
  name: "g_embedding_support_vectors/Module_0/Conv2d_Module_0/BatchNorm/moving_variance/read"
  op: "Identity"
  input: "g_embedding_support_vectors/Module_0/Conv2d_Module_0/BatchNorm/moving_variance"
  attr {
    key: "T"
    value {
      type: DT_FLOAT
    }
  }
  attr {
    key: "_class"
    value {
      list {
        s: "loc:@g_embedding_support_vectors/Module_0/Conv2d_Module_0/BatchNorm/moving_variance"
      }
    }
  }
  attr {
    key: "_output_shapes"
    value {
      list {
        shape {
          dim {
            size: 64
          }
        }
      }
    }
  }
}
node {
  name: "g_embedding_support_vectors/g_embedding_support_vectors/Module_0/Conv2d_Module_0/BatchNorm/Add/y"
  op: "Const"
  attr {
    key: "_output_shapes"
    value {
      list {
        shape {
        }
      }
    }
  }
  attr {
    key: "dtype"
    value {
      type: DT_FLOAT
    }
  }
  attr {
    key: "value"
    value {
      tensor {
        dtype: DT_FLOAT
        tensor_shape {
        }
        float_val: 0.0
      }
    }
  }
}
node {
  name: "g_embedding_support_vectors/g_embedding_support_vectors/Module_0/Conv2d_Module_0/BatchNorm/Add"
  op: "Add"
  input: "g_embedding_support_vectors/Module_0/Conv2d_Module_0/BatchNorm/moving_mean/read"
  input: "g_embedding_support_vectors/g_embedding_support_vectors/Module_0/Conv2d_Module_0/BatchNorm/Add/y"
  attr {
    key: "T"
    value {
      type: DT_FLOAT
    }
  }
  attr {
    key: "_output_shapes"
    value {
      list {
        shape {
          dim {
            size: 64
          }
        }
      }
    }
  }
}
node {
  name: "g_embedding_support_vectors/g_embedding_support_vectors/Module_0/Conv2d_Module_0/BatchNorm/moments/sufficient_statistics/Const"
  op: "Const"
  attr {
    key: "_output_shapes"
    value {
      list {
        shape {
        }
      }
    }
  }
  attr {
    key: "dtype"
    value {
      type: DT_FLOAT
    }
  }
  attr {
    key: "value"
    value {
      tensor {
        dtype: DT_FLOAT
        tensor_shape {
        }
        float_val: 39060.0
      }
    }
  }
}
node {
  name: "g_embedding_support_vectors/g_embedding_support_vectors/Module_0/Conv2d_Module_0/BatchNorm/moments/sufficient_statistics/Sub"
  op: "Sub"
  input: "g_embedding_support_vectors/g_embedding_support_vectors/Module_0/Conv2d_Module_0/Conv2D"
  input: "g_embedding_support_vectors/g_embedding_support_vectors/Module_0/Conv2d_Module_0/BatchNorm/Add"
  attr {
    key: "T"
    value {
      type: DT_FLOAT
    }
  }
  attr {
    key: "_output_shapes"
    value {
      list {
        shape {
          dim {
            size: 5
          }
          dim {
            size: 126
          }
          dim {
            size: 62
          }
          dim {
            size: 64
          }
        }
      }
    }
  }
}
node {
  name: "g_embedding_support_vectors/g_embedding_support_vectors/Module_0/Conv2d_Module_0/BatchNorm/moments/sufficient_statistics/SquaredDifference"
  op: "SquaredDifference"
  input: "g_embedding_support_vectors/g_embedding_support_vectors/Module_0/Conv2d_Module_0/Conv2D"
  input: "g_embedding_support_vectors/g_embedding_support_vectors/Module_0/Conv2d_Module_0/BatchNorm/Add"
  attr {
    key: "T"
    value {
      type: DT_FLOAT
    }
  }
  attr {
    key: "_output_shapes"
    value {
      list {
        shape {
          dim {
            size: 5
          }
          dim {
            size: 126
          }
          dim {
            size: 62
          }
          dim {
            size: 64
          }
        }
      }
    }
  }
}
node {
  name: "g_embedding_support_vectors/g_embedding_support_vectors/Module_0/Conv2d_Module_0/BatchNorm/moments/sufficient_statistics/mean_ss/reduction_indices"
  op: "Const"
  attr {
    key: "_output_shapes"
    value {
      list {
        shape {
          dim {
            size: 3
          }
        }
      }
    }
  }
  attr {
    key: "dtype"
    value {
      type: DT_INT32
    }
  }
  attr {
    key: "value"
    value {
      tensor {
        dtype: DT_INT32
        tensor_shape {
          dim {
            size: 3
          }
        }
        tensor_content: "\000\000\000\000\001\000\000\000\002\000\000\000"
      }
    }
  }
}
node {
  name: "g_embedding_support_vectors/g_embedding_support_vectors/Module_0/Conv2d_Module_0/BatchNorm/moments/sufficient_statistics/mean_ss"
  op: "Sum"
  input: "g_embedding_support_vectors/g_embedding_support_vectors/Module_0/Conv2d_Module_0/BatchNorm/moments/sufficient_statistics/Sub"
  input: "g_embedding_support_vectors/g_embedding_support_vectors/Module_0/Conv2d_Module_0/BatchNorm/moments/sufficient_statistics/mean_ss/reduction_indices"
  attr {
    key: "T"
    value {
      type: DT_FLOAT
    }
  }
  attr {
    key: "Tidx"
    value {
      type: DT_INT32
    }
  }
  attr {
    key: "_output_shapes"
    value {
      list {
        shape {
          dim {
            size: 64
          }
        }
      }
    }
  }
  attr {
    key: "keep_dims"
    value {
      b: false
    }
  }
}
node {
  name: "g_embedding_support_vectors/g_embedding_support_vectors/Module_0/Conv2d_Module_0/BatchNorm/moments/sufficient_statistics/var_ss/reduction_indices"
  op: "Const"
  attr {
    key: "_output_shapes"
    value {
      list {
        shape {
          dim {
            size: 3
          }
        }
      }
    }
  }
  attr {
    key: "dtype"
    value {
      type: DT_INT32
    }
  }
  attr {
    key: "value"
    value {
      tensor {
        dtype: DT_INT32
        tensor_shape {
          dim {
            size: 3
          }
        }
        tensor_content: "\000\000\000\000\001\000\000\000\002\000\000\000"
      }
    }
  }
}
node {
  name: "g_embedding_support_vectors/g_embedding_support_vectors/Module_0/Conv2d_Module_0/BatchNorm/moments/sufficient_statistics/var_ss"
  op: "Sum"
  input: "g_embedding_support_vectors/g_embedding_support_vectors/Module_0/Conv2d_Module_0/BatchNorm/moments/sufficient_statistics/SquaredDifference"
  input: "g_embedding_support_vectors/g_embedding_support_vectors/Module_0/Conv2d_Module_0/BatchNorm/moments/sufficient_statistics/var_ss/reduction_indices"
  attr {
    key: "T"
    value {
      type: DT_FLOAT
    }
  }
  attr {
    key: "Tidx"
    value {
      type: DT_INT32
    }
  }
  attr {
    key: "_output_shapes"
    value {
      list {
        shape {
          dim {
            size: 64
          }
        }
      }
    }
  }
  attr {
    key: "keep_dims"
    value {
      b: false
    }
  }
}
node {
  name: "g_embedding_support_vectors/g_embedding_support_vectors/Module_0/Conv2d_Module_0/BatchNorm/moments/normalize/divisor"
  op: "Inv"
  input: "g_embedding_support_vectors/g_embedding_support_vectors/Module_0/Conv2d_Module_0/BatchNorm/moments/sufficient_statistics/Const"
  input: "^g_embedding_support_vectors/g_embedding_support_vectors/Module_0/Conv2d_Module_0/BatchNorm/moments/sufficient_statistics/mean_ss"
  input: "^g_embedding_support_vectors/g_embedding_support_vectors/Module_0/Conv2d_Module_0/BatchNorm/moments/sufficient_statistics/var_ss"
  attr {
    key: "T"
    value {
      type: DT_FLOAT
    }
  }
  attr {
    key: "_output_shapes"
    value {
      list {
        shape {
        }
      }
    }
  }
}
node {
  name: "g_embedding_support_vectors/g_embedding_support_vectors/Module_0/Conv2d_Module_0/BatchNorm/moments/normalize/shifted_mean"
  op: "Mul"
  input: "g_embedding_support_vectors/g_embedding_support_vectors/Module_0/Conv2d_Module_0/BatchNorm/moments/sufficient_statistics/mean_ss"
  input: "g_embedding_support_vectors/g_embedding_support_vectors/Module_0/Conv2d_Module_0/BatchNorm/moments/normalize/divisor"
  attr {
    key: "T"
    value {
      type: DT_FLOAT
    }
  }
  attr {
    key: "_output_shapes"
    value {
      list {
        shape {
          dim {
            size: 64
          }
        }
      }
    }
  }
}
node {
  name: "g_embedding_support_vectors/g_embedding_support_vectors/Module_0/Conv2d_Module_0/BatchNorm/moments/normalize/mean"
  op: "Add"
  input: "g_embedding_support_vectors/g_embedding_support_vectors/Module_0/Conv2d_Module_0/BatchNorm/moments/normalize/shifted_mean"
  input: "g_embedding_support_vectors/g_embedding_support_vectors/Module_0/Conv2d_Module_0/BatchNorm/Add"
  attr {
    key: "T"
    value {
      type: DT_FLOAT
    }
  }
  attr {
    key: "_output_shapes"
    value {
      list {
        shape {
          dim {
            size: 64
          }
        }
      }
    }
  }
}
node {
  name: "g_embedding_support_vectors/g_embedding_support_vectors/Module_0/Conv2d_Module_0/BatchNorm/moments/normalize/Mul"
  op: "Mul"
  input: "g_embedding_support_vectors/g_embedding_support_vectors/Module_0/Conv2d_Module_0/BatchNorm/moments/sufficient_statistics/var_ss"
  input: "g_embedding_support_vectors/g_embedding_support_vectors/Module_0/Conv2d_Module_0/BatchNorm/moments/normalize/divisor"
  attr {
    key: "T"
    value {
      type: DT_FLOAT
    }
  }
  attr {
    key: "_output_shapes"
    value {
      list {
        shape {
          dim {
            size: 64
          }
        }
      }
    }
  }
}
node {
  name: "g_embedding_support_vectors/g_embedding_support_vectors/Module_0/Conv2d_Module_0/BatchNorm/moments/normalize/Square"
  op: "Square"
  input: "g_embedding_support_vectors/g_embedding_support_vectors/Module_0/Conv2d_Module_0/BatchNorm/moments/normalize/shifted_mean"
  attr {
    key: "T"
    value {
      type: DT_FLOAT
    }
  }
  attr {
    key: "_output_shapes"
    value {
      list {
        shape {
          dim {
            size: 64
          }
        }
      }
    }
  }
}
node {
  name: "g_embedding_support_vectors/g_embedding_support_vectors/Module_0/Conv2d_Module_0/BatchNorm/moments/normalize/variance"
  op: "Sub"
  input: "g_embedding_support_vectors/g_embedding_support_vectors/Module_0/Conv2d_Module_0/BatchNorm/moments/normalize/Mul"
  input: "g_embedding_support_vectors/g_embedding_support_vectors/Module_0/Conv2d_Module_0/BatchNorm/moments/normalize/Square"
  attr {
    key: "T"
    value {
      type: DT_FLOAT
    }
  }
  attr {
    key: "_output_shapes"
    value {
      list {
        shape {
          dim {
            size: 64
          }
        }
      }
    }
  }
}
node {
  name: "g_embedding_support_vectors/g_embedding_support_vectors/Module_0/Conv2d_Module_0/BatchNorm/AssignMovingAvg/decay"
  op: "Const"
  attr {
    key: "_class"
    value {
      list {
        s: "loc:@g_embedding_support_vectors/Module_0/Conv2d_Module_0/BatchNorm/moving_mean"
      }
    }
  }
  attr {
    key: "_output_shapes"
    value {
      list {
        shape {
        }
      }
    }
  }
  attr {
    key: "dtype"
    value {
      type: DT_FLOAT
    }
  }
  attr {
    key: "value"
    value {
      tensor {
        dtype: DT_FLOAT
        tensor_shape {
        }
        float_val: 0.000300000014249
      }
    }
  }
}
node {
  name: "g_embedding_support_vectors/g_embedding_support_vectors/Module_0/Conv2d_Module_0/BatchNorm/AssignMovingAvg/sub"
  op: "Sub"
  input: "g_embedding_support_vectors/Module_0/Conv2d_Module_0/BatchNorm/moving_mean/read"
  input: "g_embedding_support_vectors/g_embedding_support_vectors/Module_0/Conv2d_Module_0/BatchNorm/moments/normalize/mean"
  attr {
    key: "T"
    value {
      type: DT_FLOAT
    }
  }
  attr {
    key: "_class"
    value {
      list {
        s: "loc:@g_embedding_support_vectors/Module_0/Conv2d_Module_0/BatchNorm/moving_mean"
      }
    }
  }
  attr {
    key: "_output_shapes"
    value {
      list {
        shape {
          dim {
            size: 64
          }
        }
      }
    }
  }
}
node {
  name: "g_embedding_support_vectors/g_embedding_support_vectors/Module_0/Conv2d_Module_0/BatchNorm/AssignMovingAvg/mul"
  op: "Mul"
  input: "g_embedding_support_vectors/g_embedding_support_vectors/Module_0/Conv2d_Module_0/BatchNorm/AssignMovingAvg/sub"
  input: "g_embedding_support_vectors/g_embedding_support_vectors/Module_0/Conv2d_Module_0/BatchNorm/AssignMovingAvg/decay"
  attr {
    key: "T"
    value {
      type: DT_FLOAT
    }
  }
  attr {
    key: "_class"
    value {
      list {
        s: "loc:@g_embedding_support_vectors/Module_0/Conv2d_Module_0/BatchNorm/moving_mean"
      }
    }
  }
  attr {
    key: "_output_shapes"
    value {
      list {
        shape {
          dim {
            size: 64
          }
        }
      }
    }
  }
}
node {
  name: "g_embedding_support_vectors/g_embedding_support_vectors/Module_0/Conv2d_Module_0/BatchNorm/AssignMovingAvg"
  op: "AssignSub"
  input: "g_embedding_support_vectors/Module_0/Conv2d_Module_0/BatchNorm/moving_mean"
  input: "g_embedding_support_vectors/g_embedding_support_vectors/Module_0/Conv2d_Module_0/BatchNorm/AssignMovingAvg/mul"
  attr {
    key: "T"
    value {
      type: DT_FLOAT
    }
  }
  attr {
    key: "_class"
    value {
      list {
        s: "loc:@g_embedding_support_vectors/Module_0/Conv2d_Module_0/BatchNorm/moving_mean"
      }
    }
  }
  attr {
    key: "_output_shapes"
    value {
      list {
        shape {
          dim {
            size: 64
          }
        }
      }
    }
  }
  attr {
    key: "use_locking"
    value {
      b: false
    }
  }
}
node {
  name: "g_embedding_support_vectors/g_embedding_support_vectors/Module_0/Conv2d_Module_0/BatchNorm/AssignMovingAvg_1/decay"
  op: "Const"
  attr {
    key: "_class"
    value {
      list {
        s: "loc:@g_embedding_support_vectors/Module_0/Conv2d_Module_0/BatchNorm/moving_variance"
      }
    }
  }
  attr {
    key: "_output_shapes"
    value {
      list {
        shape {
        }
      }
    }
  }
  attr {
    key: "dtype"
    value {
      type: DT_FLOAT
    }
  }
  attr {
    key: "value"
    value {
      tensor {
        dtype: DT_FLOAT
        tensor_shape {
        }
        float_val: 0.000300000014249
      }
    }
  }
}
node {
  name: "g_embedding_support_vectors/g_embedding_support_vectors/Module_0/Conv2d_Module_0/BatchNorm/AssignMovingAvg_1/sub"
  op: "Sub"
  input: "g_embedding_support_vectors/Module_0/Conv2d_Module_0/BatchNorm/moving_variance/read"
  input: "g_embedding_support_vectors/g_embedding_support_vectors/Module_0/Conv2d_Module_0/BatchNorm/moments/normalize/variance"
  attr {
    key: "T"
    value {
      type: DT_FLOAT
    }
  }
  attr {
    key: "_class"
    value {
      list {
        s: "loc:@g_embedding_support_vectors/Module_0/Conv2d_Module_0/BatchNorm/moving_variance"
      }
    }
  }
  attr {
    key: "_output_shapes"
    value {
      list {
        shape {
          dim {
            size: 64
          }
        }
      }
    }
  }
}
node {
  name: "g_embedding_support_vectors/g_embedding_support_vectors/Module_0/Conv2d_Module_0/BatchNorm/AssignMovingAvg_1/mul"
  op: "Mul"
  input: "g_embedding_support_vectors/g_embedding_support_vectors/Module_0/Conv2d_Module_0/BatchNorm/AssignMovingAvg_1/sub"
  input: "g_embedding_support_vectors/g_embedding_support_vectors/Module_0/Conv2d_Module_0/BatchNorm/AssignMovingAvg_1/decay"
  attr {
    key: "T"
    value {
      type: DT_FLOAT
    }
  }
  attr {
    key: "_class"
    value {
      list {
        s: "loc:@g_embedding_support_vectors/Module_0/Conv2d_Module_0/BatchNorm/moving_variance"
      }
    }
  }
  attr {
    key: "_output_shapes"
    value {
      list {
        shape {
          dim {
            size: 64
          }
        }
      }
    }
  }
}
node {
  name: "g_embedding_support_vectors/g_embedding_support_vectors/Module_0/Conv2d_Module_0/BatchNorm/AssignMovingAvg_1"
  op: "AssignSub"
  input: "g_embedding_support_vectors/Module_0/Conv2d_Module_0/BatchNorm/moving_variance"
  input: "g_embedding_support_vectors/g_embedding_support_vectors/Module_0/Conv2d_Module_0/BatchNorm/AssignMovingAvg_1/mul"
  attr {
    key: "T"
    value {
      type: DT_FLOAT
    }
  }
  attr {
    key: "_class"
    value {
      list {
        s: "loc:@g_embedding_support_vectors/Module_0/Conv2d_Module_0/BatchNorm/moving_variance"
      }
    }
  }
  attr {
    key: "_output_shapes"
    value {
      list {
        shape {
          dim {
            size: 64
          }
        }
      }
    }
  }
  attr {
    key: "use_locking"
    value {
      b: false
    }
  }
}
node {
  name: "g_embedding_support_vectors/g_embedding_support_vectors/Module_0/Conv2d_Module_0/BatchNorm/batchnorm/add/y"
  op: "Const"
  attr {
    key: "_output_shapes"
    value {
      list {
        shape {
        }
      }
    }
  }
  attr {
    key: "dtype"
    value {
      type: DT_FLOAT
    }
  }
  attr {
    key: "value"
    value {
      tensor {
        dtype: DT_FLOAT
        tensor_shape {
        }
        float_val: 0.0010000000475
      }
    }
  }
}
node {
  name: "g_embedding_support_vectors/g_embedding_support_vectors/Module_0/Conv2d_Module_0/BatchNorm/batchnorm/add"
  op: "Add"
  input: "g_embedding_support_vectors/g_embedding_support_vectors/Module_0/Conv2d_Module_0/BatchNorm/moments/normalize/variance"
  input: "g_embedding_support_vectors/g_embedding_support_vectors/Module_0/Conv2d_Module_0/BatchNorm/batchnorm/add/y"
  attr {
    key: "T"
    value {
      type: DT_FLOAT
    }
  }
  attr {
    key: "_output_shapes"
    value {
      list {
        shape {
          dim {
            size: 64
          }
        }
      }
    }
  }
}
node {
  name: "g_embedding_support_vectors/g_embedding_support_vectors/Module_0/Conv2d_Module_0/BatchNorm/batchnorm/Rsqrt"
  op: "Rsqrt"
  input: "g_embedding_support_vectors/g_embedding_support_vectors/Module_0/Conv2d_Module_0/BatchNorm/batchnorm/add"
  attr {
    key: "T"
    value {
      type: DT_FLOAT
    }
  }
  attr {
    key: "_output_shapes"
    value {
      list {
        shape {
          dim {
            size: 64
          }
        }
      }
    }
  }
}
node {
  name: "g_embedding_support_vectors/g_embedding_support_vectors/Module_0/Conv2d_Module_0/BatchNorm/batchnorm/mul"
  op: "Mul"
  input: "g_embedding_support_vectors/g_embedding_support_vectors/Module_0/Conv2d_Module_0/Conv2D"
  input: "g_embedding_support_vectors/g_embedding_support_vectors/Module_0/Conv2d_Module_0/BatchNorm/batchnorm/Rsqrt"
  attr {
    key: "T"
    value {
      type: DT_FLOAT
    }
  }
  attr {
    key: "_output_shapes"
    value {
      list {
        shape {
          dim {
            size: 5
          }
          dim {
            size: 126
          }
          dim {
            size: 62
          }
          dim {
            size: 64
          }
        }
      }
    }
  }
}
node {
  name: "g_embedding_support_vectors/g_embedding_support_vectors/Module_0/Conv2d_Module_0/BatchNorm/batchnorm/mul_1"
  op: "Mul"
  input: "g_embedding_support_vectors/g_embedding_support_vectors/Module_0/Conv2d_Module_0/BatchNorm/moments/normalize/mean"
  input: "g_embedding_support_vectors/g_embedding_support_vectors/Module_0/Conv2d_Module_0/BatchNorm/batchnorm/Rsqrt"
  attr {
    key: "T"
    value {
      type: DT_FLOAT
    }
  }
  attr {
    key: "_output_shapes"
    value {
      list {
        shape {
          dim {
            size: 64
          }
        }
      }
    }
  }
}
node {
  name: "g_embedding_support_vectors/g_embedding_support_vectors/Module_0/Conv2d_Module_0/BatchNorm/batchnorm/sub"
  op: "Sub"
  input: "g_embedding_support_vectors/Module_0/Conv2d_Module_0/BatchNorm/beta/read"
  input: "g_embedding_support_vectors/g_embedding_support_vectors/Module_0/Conv2d_Module_0/BatchNorm/batchnorm/mul_1"
  attr {
    key: "T"
    value {
      type: DT_FLOAT
    }
  }
  attr {
    key: "_output_shapes"
    value {
      list {
        shape {
          dim {
            size: 64
          }
        }
      }
    }
  }
}
node {
  name: "g_embedding_support_vectors/g_embedding_support_vectors/Module_0/Conv2d_Module_0/BatchNorm/batchnorm/add_1"
  op: "Add"
  input: "g_embedding_support_vectors/g_embedding_support_vectors/Module_0/Conv2d_Module_0/BatchNorm/batchnorm/mul"
  input: "g_embedding_support_vectors/g_embedding_support_vectors/Module_0/Conv2d_Module_0/BatchNorm/batchnorm/sub"
  attr {
    key: "T"
    value {
      type: DT_FLOAT
    }
  }
  attr {
    key: "_output_shapes"
    value {
      list {
        shape {
          dim {
            size: 5
          }
          dim {
            size: 126
          }
          dim {
            size: 62
          }
          dim {
            size: 64
          }
        }
      }
    }
  }
}
node {
  name: "g_embedding_support_vectors/g_embedding_support_vectors/Module_0/Conv2d_Module_0/Relu"
  op: "Relu"
  input: "g_embedding_support_vectors/g_embedding_support_vectors/Module_0/Conv2d_Module_0/BatchNorm/batchnorm/add_1"
  attr {
    key: "T"
    value {
      type: DT_FLOAT
    }
  }
  attr {
    key: "_output_shapes"
    value {
      list {
        shape {
          dim {
            size: 5
          }
          dim {
            size: 126
          }
          dim {
            size: 62
          }
          dim {
            size: 64
          }
        }
      }
    }
  }
}
node {
  name: "g_embedding_support_vectors/g_embedding_support_vectors/Module_0/MaxPool_Module_0/MaxPool"
  op: "MaxPool"
  input: "g_embedding_support_vectors/g_embedding_support_vectors/Module_0/Conv2d_Module_0/Relu"
  attr {
    key: "T"
    value {
      type: DT_FLOAT
    }
  }
  attr {
    key: "_output_shapes"
    value {
      list {
        shape {
          dim {
            size: 5
          }
          dim {
            size: 63
          }
          dim {
            size: 31
          }
          dim {
            size: 64
          }
        }
      }
    }
  }
  attr {
    key: "data_format"
    value {
      s: "NHWC"
    }
  }
  attr {
    key: "ksize"
    value {
      list {
        i: 1
        i: 2
        i: 2
        i: 1
      }
    }
  }
  attr {
    key: "padding"
    value {
      s: "VALID"
    }
  }
  attr {
    key: "strides"
    value {
      list {
        i: 1
        i: 2
        i: 2
        i: 1
      }
    }
  }
}
node {
  name: "g_embedding_support_vectors/Module_1/Conv2d_Module_1/weights"
  op: "Variable"
  attr {
    key: "_output_shapes"
    value {
      list {
        shape {
          dim {
            size: 3
          }
          dim {
            size: 3
          }
          dim {
            size: 64
          }
          dim {
            size: 64
          }
        }
      }
    }
  }
  attr {
    key: "container"
    value {
      s: ""
    }
  }
  attr {
    key: "dtype"
    value {
      type: DT_FLOAT
    }
  }
  attr {
    key: "shape"
    value {
      shape {
        dim {
          size: 3
        }
        dim {
          size: 3
        }
        dim {
          size: 64
        }
        dim {
          size: 64
        }
      }
    }
  }
  attr {
    key: "shared_name"
    value {
      s: ""
    }
  }
}
node {
  name: "g_embedding_support_vectors/Module_1/Conv2d_Module_1/weights/Initializer/truncated_normal/shape"
  op: "Const"
  attr {
    key: "_class"
    value {
      list {
        s: "loc:@g_embedding_support_vectors/Module_1/Conv2d_Module_1/weights"
      }
    }
  }
  attr {
    key: "_output_shapes"
    value {
      list {
        shape {
          dim {
            size: 4
          }
        }
      }
    }
  }
  attr {
    key: "dtype"
    value {
      type: DT_INT32
    }
  }
  attr {
    key: "value"
    value {
      tensor {
        dtype: DT_INT32
        tensor_shape {
          dim {
            size: 4
          }
        }
        tensor_content: "\003\000\000\000\003\000\000\000@\000\000\000@\000\000\000"
      }
    }
  }
}
node {
  name: "g_embedding_support_vectors/Module_1/Conv2d_Module_1/weights/Initializer/truncated_normal/mean"
  op: "Const"
  attr {
    key: "_class"
    value {
      list {
        s: "loc:@g_embedding_support_vectors/Module_1/Conv2d_Module_1/weights"
      }
    }
  }
  attr {
    key: "_output_shapes"
    value {
      list {
        shape {
        }
      }
    }
  }
  attr {
    key: "dtype"
    value {
      type: DT_FLOAT
    }
  }
  attr {
    key: "value"
    value {
      tensor {
        dtype: DT_FLOAT
        tensor_shape {
        }
        float_val: 0.0
      }
    }
  }
}
node {
  name: "g_embedding_support_vectors/Module_1/Conv2d_Module_1/weights/Initializer/truncated_normal/stddev"
  op: "Const"
  attr {
    key: "_class"
    value {
      list {
        s: "loc:@g_embedding_support_vectors/Module_1/Conv2d_Module_1/weights"
      }
    }
  }
  attr {
    key: "_output_shapes"
    value {
      list {
        shape {
        }
      }
    }
  }
  attr {
    key: "dtype"
    value {
      type: DT_FLOAT
    }
  }
  attr {
    key: "value"
    value {
      tensor {
        dtype: DT_FLOAT
        tensor_shape {
        }
        float_val: 0.10000000149
      }
    }
  }
}
node {
  name: "g_embedding_support_vectors/Module_1/Conv2d_Module_1/weights/Initializer/truncated_normal/TruncatedNormal"
  op: "TruncatedNormal"
  input: "g_embedding_support_vectors/Module_1/Conv2d_Module_1/weights/Initializer/truncated_normal/shape"
  attr {
    key: "T"
    value {
      type: DT_INT32
    }
  }
  attr {
    key: "_class"
    value {
      list {
        s: "loc:@g_embedding_support_vectors/Module_1/Conv2d_Module_1/weights"
      }
    }
  }
  attr {
    key: "_output_shapes"
    value {
      list {
        shape {
          dim {
            size: 3
          }
          dim {
            size: 3
          }
          dim {
            size: 64
          }
          dim {
            size: 64
          }
        }
      }
    }
  }
  attr {
    key: "dtype"
    value {
      type: DT_FLOAT
    }
  }
  attr {
    key: "seed"
    value {
      i: 0
    }
  }
  attr {
    key: "seed2"
    value {
      i: 0
    }
  }
}
node {
  name: "g_embedding_support_vectors/Module_1/Conv2d_Module_1/weights/Initializer/truncated_normal/mul"
  op: "Mul"
  input: "g_embedding_support_vectors/Module_1/Conv2d_Module_1/weights/Initializer/truncated_normal/TruncatedNormal"
  input: "g_embedding_support_vectors/Module_1/Conv2d_Module_1/weights/Initializer/truncated_normal/stddev"
  attr {
    key: "T"
    value {
      type: DT_FLOAT
    }
  }
  attr {
    key: "_class"
    value {
      list {
        s: "loc:@g_embedding_support_vectors/Module_1/Conv2d_Module_1/weights"
      }
    }
  }
  attr {
    key: "_output_shapes"
    value {
      list {
        shape {
          dim {
            size: 3
          }
          dim {
            size: 3
          }
          dim {
            size: 64
          }
          dim {
            size: 64
          }
        }
      }
    }
  }
}
node {
  name: "g_embedding_support_vectors/Module_1/Conv2d_Module_1/weights/Initializer/truncated_normal"
  op: "Add"
  input: "g_embedding_support_vectors/Module_1/Conv2d_Module_1/weights/Initializer/truncated_normal/mul"
  input: "g_embedding_support_vectors/Module_1/Conv2d_Module_1/weights/Initializer/truncated_normal/mean"
  attr {
    key: "T"
    value {
      type: DT_FLOAT
    }
  }
  attr {
    key: "_class"
    value {
      list {
        s: "loc:@g_embedding_support_vectors/Module_1/Conv2d_Module_1/weights"
      }
    }
  }
  attr {
    key: "_output_shapes"
    value {
      list {
        shape {
          dim {
            size: 3
          }
          dim {
            size: 3
          }
          dim {
            size: 64
          }
          dim {
            size: 64
          }
        }
      }
    }
  }
}
node {
  name: "g_embedding_support_vectors/Module_1/Conv2d_Module_1/weights/Assign"
  op: "Assign"
  input: "g_embedding_support_vectors/Module_1/Conv2d_Module_1/weights"
  input: "g_embedding_support_vectors/Module_1/Conv2d_Module_1/weights/Initializer/truncated_normal"
  attr {
    key: "T"
    value {
      type: DT_FLOAT
    }
  }
  attr {
    key: "_class"
    value {
      list {
        s: "loc:@g_embedding_support_vectors/Module_1/Conv2d_Module_1/weights"
      }
    }
  }
  attr {
    key: "_output_shapes"
    value {
      list {
        shape {
          dim {
            size: 3
          }
          dim {
            size: 3
          }
          dim {
            size: 64
          }
          dim {
            size: 64
          }
        }
      }
    }
  }
  attr {
    key: "use_locking"
    value {
      b: true
    }
  }
  attr {
    key: "validate_shape"
    value {
      b: true
    }
  }
}
node {
  name: "g_embedding_support_vectors/Module_1/Conv2d_Module_1/weights/read"
  op: "Identity"
  input: "g_embedding_support_vectors/Module_1/Conv2d_Module_1/weights"
  attr {
    key: "T"
    value {
      type: DT_FLOAT
    }
  }
  attr {
    key: "_class"
    value {
      list {
        s: "loc:@g_embedding_support_vectors/Module_1/Conv2d_Module_1/weights"
      }
    }
  }
  attr {
    key: "_output_shapes"
    value {
      list {
        shape {
          dim {
            size: 3
          }
          dim {
            size: 3
          }
          dim {
            size: 64
          }
          dim {
            size: 64
          }
        }
      }
    }
  }
}
node {
  name: "g_embedding_support_vectors/Module_1/Conv2d_Module_1/weights/Regularizer/l2_regularizer/scale"
  op: "Const"
  attr {
    key: "_class"
    value {
      list {
        s: "loc:@g_embedding_support_vectors/Module_1/Conv2d_Module_1/weights"
      }
    }
  }
  attr {
    key: "_output_shapes"
    value {
      list {
        shape {
        }
      }
    }
  }
  attr {
    key: "dtype"
    value {
      type: DT_FLOAT
    }
  }
  attr {
    key: "value"
    value {
      tensor {
        dtype: DT_FLOAT
        tensor_shape {
        }
        float_val: 3.99999989895e-05
      }
    }
  }
}
node {
  name: "g_embedding_support_vectors/Module_1/Conv2d_Module_1/weights/Regularizer/l2_regularizer/L2Loss"
  op: "L2Loss"
  input: "g_embedding_support_vectors/Module_1/Conv2d_Module_1/weights/read"
  attr {
    key: "T"
    value {
      type: DT_FLOAT
    }
  }
  attr {
    key: "_class"
    value {
      list {
        s: "loc:@g_embedding_support_vectors/Module_1/Conv2d_Module_1/weights"
      }
    }
  }
  attr {
    key: "_output_shapes"
    value {
      list {
        shape {
        }
      }
    }
  }
}
node {
  name: "g_embedding_support_vectors/Module_1/Conv2d_Module_1/weights/Regularizer/l2_regularizer"
  op: "Mul"
  input: "g_embedding_support_vectors/Module_1/Conv2d_Module_1/weights/Regularizer/l2_regularizer/scale"
  input: "g_embedding_support_vectors/Module_1/Conv2d_Module_1/weights/Regularizer/l2_regularizer/L2Loss"
  attr {
    key: "T"
    value {
      type: DT_FLOAT
    }
  }
  attr {
    key: "_class"
    value {
      list {
        s: "loc:@g_embedding_support_vectors/Module_1/Conv2d_Module_1/weights"
      }
    }
  }
  attr {
    key: "_output_shapes"
    value {
      list {
        shape {
        }
      }
    }
  }
}
node {
  name: "g_embedding_support_vectors/g_embedding_support_vectors/Module_1/Conv2d_Module_1/Conv2D"
  op: "Conv2D"
  input: "g_embedding_support_vectors/g_embedding_support_vectors/Module_0/MaxPool_Module_0/MaxPool"
  input: "g_embedding_support_vectors/Module_1/Conv2d_Module_1/weights/read"
  attr {
    key: "T"
    value {
      type: DT_FLOAT
    }
  }
  attr {
    key: "_output_shapes"
    value {
      list {
        shape {
          dim {
            size: 5
          }
          dim {
            size: 61
          }
          dim {
            size: 29
          }
          dim {
            size: 64
          }
        }
      }
    }
  }
  attr {
    key: "data_format"
    value {
      s: "NHWC"
    }
  }
  attr {
    key: "padding"
    value {
      s: "VALID"
    }
  }
  attr {
    key: "strides"
    value {
      list {
        i: 1
        i: 1
        i: 1
        i: 1
      }
    }
  }
  attr {
    key: "use_cudnn_on_gpu"
    value {
      b: true
    }
  }
}
node {
  name: "g_embedding_support_vectors/Module_1/Conv2d_Module_1/BatchNorm/beta"
  op: "Variable"
  attr {
    key: "_output_shapes"
    value {
      list {
        shape {
          dim {
            size: 64
          }
        }
      }
    }
  }
  attr {
    key: "container"
    value {
      s: ""
    }
  }
  attr {
    key: "dtype"
    value {
      type: DT_FLOAT
    }
  }
  attr {
    key: "shape"
    value {
      shape {
        dim {
          size: 64
        }
      }
    }
  }
  attr {
    key: "shared_name"
    value {
      s: ""
    }
  }
}
node {
  name: "g_embedding_support_vectors/Module_1/Conv2d_Module_1/BatchNorm/beta/Initializer/zeros"
  op: "Const"
  attr {
    key: "_class"
    value {
      list {
        s: "loc:@g_embedding_support_vectors/Module_1/Conv2d_Module_1/BatchNorm/beta"
      }
    }
  }
  attr {
    key: "_output_shapes"
    value {
      list {
        shape {
          dim {
            size: 64
          }
        }
      }
    }
  }
  attr {
    key: "dtype"
    value {
      type: DT_FLOAT
    }
  }
  attr {
    key: "value"
    value {
      tensor {
        dtype: DT_FLOAT
        tensor_shape {
          dim {
            size: 64
          }
        }
        float_val: 0.0
      }
    }
  }
}
node {
  name: "g_embedding_support_vectors/Module_1/Conv2d_Module_1/BatchNorm/beta/Assign"
  op: "Assign"
  input: "g_embedding_support_vectors/Module_1/Conv2d_Module_1/BatchNorm/beta"
  input: "g_embedding_support_vectors/Module_1/Conv2d_Module_1/BatchNorm/beta/Initializer/zeros"
  attr {
    key: "T"
    value {
      type: DT_FLOAT
    }
  }
  attr {
    key: "_class"
    value {
      list {
        s: "loc:@g_embedding_support_vectors/Module_1/Conv2d_Module_1/BatchNorm/beta"
      }
    }
  }
  attr {
    key: "_output_shapes"
    value {
      list {
        shape {
          dim {
            size: 64
          }
        }
      }
    }
  }
  attr {
    key: "use_locking"
    value {
      b: true
    }
  }
  attr {
    key: "validate_shape"
    value {
      b: true
    }
  }
}
node {
  name: "g_embedding_support_vectors/Module_1/Conv2d_Module_1/BatchNorm/beta/read"
  op: "Identity"
  input: "g_embedding_support_vectors/Module_1/Conv2d_Module_1/BatchNorm/beta"
  attr {
    key: "T"
    value {
      type: DT_FLOAT
    }
  }
  attr {
    key: "_class"
    value {
      list {
        s: "loc:@g_embedding_support_vectors/Module_1/Conv2d_Module_1/BatchNorm/beta"
      }
    }
  }
  attr {
    key: "_output_shapes"
    value {
      list {
        shape {
          dim {
            size: 64
          }
        }
      }
    }
  }
}
node {
  name: "g_embedding_support_vectors/Module_1/Conv2d_Module_1/BatchNorm/moving_mean"
  op: "Variable"
  attr {
    key: "_output_shapes"
    value {
      list {
        shape {
          dim {
            size: 64
          }
        }
      }
    }
  }
  attr {
    key: "container"
    value {
      s: ""
    }
  }
  attr {
    key: "dtype"
    value {
      type: DT_FLOAT
    }
  }
  attr {
    key: "shape"
    value {
      shape {
        dim {
          size: 64
        }
      }
    }
  }
  attr {
    key: "shared_name"
    value {
      s: ""
    }
  }
}
node {
  name: "g_embedding_support_vectors/Module_1/Conv2d_Module_1/BatchNorm/moving_mean/Initializer/zeros"
  op: "Const"
  attr {
    key: "_class"
    value {
      list {
        s: "loc:@g_embedding_support_vectors/Module_1/Conv2d_Module_1/BatchNorm/moving_mean"
      }
    }
  }
  attr {
    key: "_output_shapes"
    value {
      list {
        shape {
          dim {
            size: 64
          }
        }
      }
    }
  }
  attr {
    key: "dtype"
    value {
      type: DT_FLOAT
    }
  }
  attr {
    key: "value"
    value {
      tensor {
        dtype: DT_FLOAT
        tensor_shape {
          dim {
            size: 64
          }
        }
        float_val: 0.0
      }
    }
  }
}
node {
  name: "g_embedding_support_vectors/Module_1/Conv2d_Module_1/BatchNorm/moving_mean/Assign"
  op: "Assign"
  input: "g_embedding_support_vectors/Module_1/Conv2d_Module_1/BatchNorm/moving_mean"
  input: "g_embedding_support_vectors/Module_1/Conv2d_Module_1/BatchNorm/moving_mean/Initializer/zeros"
  attr {
    key: "T"
    value {
      type: DT_FLOAT
    }
  }
  attr {
    key: "_class"
    value {
      list {
        s: "loc:@g_embedding_support_vectors/Module_1/Conv2d_Module_1/BatchNorm/moving_mean"
      }
    }
  }
  attr {
    key: "_output_shapes"
    value {
      list {
        shape {
          dim {
            size: 64
          }
        }
      }
    }
  }
  attr {
    key: "use_locking"
    value {
      b: true
    }
  }
  attr {
    key: "validate_shape"
    value {
      b: true
    }
  }
}
node {
  name: "g_embedding_support_vectors/Module_1/Conv2d_Module_1/BatchNorm/moving_mean/read"
  op: "Identity"
  input: "g_embedding_support_vectors/Module_1/Conv2d_Module_1/BatchNorm/moving_mean"
  attr {
    key: "T"
    value {
      type: DT_FLOAT
    }
  }
  attr {
    key: "_class"
    value {
      list {
        s: "loc:@g_embedding_support_vectors/Module_1/Conv2d_Module_1/BatchNorm/moving_mean"
      }
    }
  }
  attr {
    key: "_output_shapes"
    value {
      list {
        shape {
          dim {
            size: 64
          }
        }
      }
    }
  }
}
node {
  name: "g_embedding_support_vectors/Module_1/Conv2d_Module_1/BatchNorm/moving_variance"
  op: "Variable"
  attr {
    key: "_output_shapes"
    value {
      list {
        shape {
          dim {
            size: 64
          }
        }
      }
    }
  }
  attr {
    key: "container"
    value {
      s: ""
    }
  }
  attr {
    key: "dtype"
    value {
      type: DT_FLOAT
    }
  }
  attr {
    key: "shape"
    value {
      shape {
        dim {
          size: 64
        }
      }
    }
  }
  attr {
    key: "shared_name"
    value {
      s: ""
    }
  }
}
node {
  name: "g_embedding_support_vectors/Module_1/Conv2d_Module_1/BatchNorm/moving_variance/Initializer/ones"
  op: "Const"
  attr {
    key: "_class"
    value {
      list {
        s: "loc:@g_embedding_support_vectors/Module_1/Conv2d_Module_1/BatchNorm/moving_variance"
      }
    }
  }
  attr {
    key: "_output_shapes"
    value {
      list {
        shape {
          dim {
            size: 64
          }
        }
      }
    }
  }
  attr {
    key: "dtype"
    value {
      type: DT_FLOAT
    }
  }
  attr {
    key: "value"
    value {
      tensor {
        dtype: DT_FLOAT
        tensor_shape {
          dim {
            size: 64
          }
        }
        float_val: 1.0
      }
    }
  }
}
node {
  name: "g_embedding_support_vectors/Module_1/Conv2d_Module_1/BatchNorm/moving_variance/Assign"
  op: "Assign"
  input: "g_embedding_support_vectors/Module_1/Conv2d_Module_1/BatchNorm/moving_variance"
  input: "g_embedding_support_vectors/Module_1/Conv2d_Module_1/BatchNorm/moving_variance/Initializer/ones"
  attr {
    key: "T"
    value {
      type: DT_FLOAT
    }
  }
  attr {
    key: "_class"
    value {
      list {
        s: "loc:@g_embedding_support_vectors/Module_1/Conv2d_Module_1/BatchNorm/moving_variance"
      }
    }
  }
  attr {
    key: "_output_shapes"
    value {
      list {
        shape {
          dim {
            size: 64
          }
        }
      }
    }
  }
  attr {
    key: "use_locking"
    value {
      b: true
    }
  }
  attr {
    key: "validate_shape"
    value {
      b: true
    }
  }
}
node {
  name: "g_embedding_support_vectors/Module_1/Conv2d_Module_1/BatchNorm/moving_variance/read"
  op: "Identity"
  input: "g_embedding_support_vectors/Module_1/Conv2d_Module_1/BatchNorm/moving_variance"
  attr {
    key: "T"
    value {
      type: DT_FLOAT
    }
  }
  attr {
    key: "_class"
    value {
      list {
        s: "loc:@g_embedding_support_vectors/Module_1/Conv2d_Module_1/BatchNorm/moving_variance"
      }
    }
  }
  attr {
    key: "_output_shapes"
    value {
      list {
        shape {
          dim {
            size: 64
          }
        }
      }
    }
  }
}
node {
  name: "g_embedding_support_vectors/g_embedding_support_vectors/Module_1/Conv2d_Module_1/BatchNorm/Add/y"
  op: "Const"
  attr {
    key: "_output_shapes"
    value {
      list {
        shape {
        }
      }
    }
  }
  attr {
    key: "dtype"
    value {
      type: DT_FLOAT
    }
  }
  attr {
    key: "value"
    value {
      tensor {
        dtype: DT_FLOAT
        tensor_shape {
        }
        float_val: 0.0
      }
    }
  }
}
node {
  name: "g_embedding_support_vectors/g_embedding_support_vectors/Module_1/Conv2d_Module_1/BatchNorm/Add"
  op: "Add"
  input: "g_embedding_support_vectors/Module_1/Conv2d_Module_1/BatchNorm/moving_mean/read"
  input: "g_embedding_support_vectors/g_embedding_support_vectors/Module_1/Conv2d_Module_1/BatchNorm/Add/y"
  attr {
    key: "T"
    value {
      type: DT_FLOAT
    }
  }
  attr {
    key: "_output_shapes"
    value {
      list {
        shape {
          dim {
            size: 64
          }
        }
      }
    }
  }
}
node {
  name: "g_embedding_support_vectors/g_embedding_support_vectors/Module_1/Conv2d_Module_1/BatchNorm/moments/sufficient_statistics/Const"
  op: "Const"
  attr {
    key: "_output_shapes"
    value {
      list {
        shape {
        }
      }
    }
  }
  attr {
    key: "dtype"
    value {
      type: DT_FLOAT
    }
  }
  attr {
    key: "value"
    value {
      tensor {
        dtype: DT_FLOAT
        tensor_shape {
        }
        float_val: 8845.0
      }
    }
  }
}
node {
  name: "g_embedding_support_vectors/g_embedding_support_vectors/Module_1/Conv2d_Module_1/BatchNorm/moments/sufficient_statistics/Sub"
  op: "Sub"
  input: "g_embedding_support_vectors/g_embedding_support_vectors/Module_1/Conv2d_Module_1/Conv2D"
  input: "g_embedding_support_vectors/g_embedding_support_vectors/Module_1/Conv2d_Module_1/BatchNorm/Add"
  attr {
    key: "T"
    value {
      type: DT_FLOAT
    }
  }
  attr {
    key: "_output_shapes"
    value {
      list {
        shape {
          dim {
            size: 5
          }
          dim {
            size: 61
          }
          dim {
            size: 29
          }
          dim {
            size: 64
          }
        }
      }
    }
  }
}
node {
  name: "g_embedding_support_vectors/g_embedding_support_vectors/Module_1/Conv2d_Module_1/BatchNorm/moments/sufficient_statistics/SquaredDifference"
  op: "SquaredDifference"
  input: "g_embedding_support_vectors/g_embedding_support_vectors/Module_1/Conv2d_Module_1/Conv2D"
  input: "g_embedding_support_vectors/g_embedding_support_vectors/Module_1/Conv2d_Module_1/BatchNorm/Add"
  attr {
    key: "T"
    value {
      type: DT_FLOAT
    }
  }
  attr {
    key: "_output_shapes"
    value {
      list {
        shape {
          dim {
            size: 5
          }
          dim {
            size: 61
          }
          dim {
            size: 29
          }
          dim {
            size: 64
          }
        }
      }
    }
  }
}
node {
  name: "g_embedding_support_vectors/g_embedding_support_vectors/Module_1/Conv2d_Module_1/BatchNorm/moments/sufficient_statistics/mean_ss/reduction_indices"
  op: "Const"
  attr {
    key: "_output_shapes"
    value {
      list {
        shape {
          dim {
            size: 3
          }
        }
      }
    }
  }
  attr {
    key: "dtype"
    value {
      type: DT_INT32
    }
  }
  attr {
    key: "value"
    value {
      tensor {
        dtype: DT_INT32
        tensor_shape {
          dim {
            size: 3
          }
        }
        tensor_content: "\000\000\000\000\001\000\000\000\002\000\000\000"
      }
    }
  }
}
node {
  name: "g_embedding_support_vectors/g_embedding_support_vectors/Module_1/Conv2d_Module_1/BatchNorm/moments/sufficient_statistics/mean_ss"
  op: "Sum"
  input: "g_embedding_support_vectors/g_embedding_support_vectors/Module_1/Conv2d_Module_1/BatchNorm/moments/sufficient_statistics/Sub"
  input: "g_embedding_support_vectors/g_embedding_support_vectors/Module_1/Conv2d_Module_1/BatchNorm/moments/sufficient_statistics/mean_ss/reduction_indices"
  attr {
    key: "T"
    value {
      type: DT_FLOAT
    }
  }
  attr {
    key: "Tidx"
    value {
      type: DT_INT32
    }
  }
  attr {
    key: "_output_shapes"
    value {
      list {
        shape {
          dim {
            size: 64
          }
        }
      }
    }
  }
  attr {
    key: "keep_dims"
    value {
      b: false
    }
  }
}
node {
  name: "g_embedding_support_vectors/g_embedding_support_vectors/Module_1/Conv2d_Module_1/BatchNorm/moments/sufficient_statistics/var_ss/reduction_indices"
  op: "Const"
  attr {
    key: "_output_shapes"
    value {
      list {
        shape {
          dim {
            size: 3
          }
        }
      }
    }
  }
  attr {
    key: "dtype"
    value {
      type: DT_INT32
    }
  }
  attr {
    key: "value"
    value {
      tensor {
        dtype: DT_INT32
        tensor_shape {
          dim {
            size: 3
          }
        }
        tensor_content: "\000\000\000\000\001\000\000\000\002\000\000\000"
      }
    }
  }
}
node {
  name: "g_embedding_support_vectors/g_embedding_support_vectors/Module_1/Conv2d_Module_1/BatchNorm/moments/sufficient_statistics/var_ss"
  op: "Sum"
  input: "g_embedding_support_vectors/g_embedding_support_vectors/Module_1/Conv2d_Module_1/BatchNorm/moments/sufficient_statistics/SquaredDifference"
  input: "g_embedding_support_vectors/g_embedding_support_vectors/Module_1/Conv2d_Module_1/BatchNorm/moments/sufficient_statistics/var_ss/reduction_indices"
  attr {
    key: "T"
    value {
      type: DT_FLOAT
    }
  }
  attr {
    key: "Tidx"
    value {
      type: DT_INT32
    }
  }
  attr {
    key: "_output_shapes"
    value {
      list {
        shape {
          dim {
            size: 64
          }
        }
      }
    }
  }
  attr {
    key: "keep_dims"
    value {
      b: false
    }
  }
}
node {
  name: "g_embedding_support_vectors/g_embedding_support_vectors/Module_1/Conv2d_Module_1/BatchNorm/moments/normalize/divisor"
  op: "Inv"
  input: "g_embedding_support_vectors/g_embedding_support_vectors/Module_1/Conv2d_Module_1/BatchNorm/moments/sufficient_statistics/Const"
  input: "^g_embedding_support_vectors/g_embedding_support_vectors/Module_1/Conv2d_Module_1/BatchNorm/moments/sufficient_statistics/mean_ss"
  input: "^g_embedding_support_vectors/g_embedding_support_vectors/Module_1/Conv2d_Module_1/BatchNorm/moments/sufficient_statistics/var_ss"
  attr {
    key: "T"
    value {
      type: DT_FLOAT
    }
  }
  attr {
    key: "_output_shapes"
    value {
      list {
        shape {
        }
      }
    }
  }
}
node {
  name: "g_embedding_support_vectors/g_embedding_support_vectors/Module_1/Conv2d_Module_1/BatchNorm/moments/normalize/shifted_mean"
  op: "Mul"
  input: "g_embedding_support_vectors/g_embedding_support_vectors/Module_1/Conv2d_Module_1/BatchNorm/moments/sufficient_statistics/mean_ss"
  input: "g_embedding_support_vectors/g_embedding_support_vectors/Module_1/Conv2d_Module_1/BatchNorm/moments/normalize/divisor"
  attr {
    key: "T"
    value {
      type: DT_FLOAT
    }
  }
  attr {
    key: "_output_shapes"
    value {
      list {
        shape {
          dim {
            size: 64
          }
        }
      }
    }
  }
}
node {
  name: "g_embedding_support_vectors/g_embedding_support_vectors/Module_1/Conv2d_Module_1/BatchNorm/moments/normalize/mean"
  op: "Add"
  input: "g_embedding_support_vectors/g_embedding_support_vectors/Module_1/Conv2d_Module_1/BatchNorm/moments/normalize/shifted_mean"
  input: "g_embedding_support_vectors/g_embedding_support_vectors/Module_1/Conv2d_Module_1/BatchNorm/Add"
  attr {
    key: "T"
    value {
      type: DT_FLOAT
    }
  }
  attr {
    key: "_output_shapes"
    value {
      list {
        shape {
          dim {
            size: 64
          }
        }
      }
    }
  }
}
node {
  name: "g_embedding_support_vectors/g_embedding_support_vectors/Module_1/Conv2d_Module_1/BatchNorm/moments/normalize/Mul"
  op: "Mul"
  input: "g_embedding_support_vectors/g_embedding_support_vectors/Module_1/Conv2d_Module_1/BatchNorm/moments/sufficient_statistics/var_ss"
  input: "g_embedding_support_vectors/g_embedding_support_vectors/Module_1/Conv2d_Module_1/BatchNorm/moments/normalize/divisor"
  attr {
    key: "T"
    value {
      type: DT_FLOAT
    }
  }
  attr {
    key: "_output_shapes"
    value {
      list {
        shape {
          dim {
            size: 64
          }
        }
      }
    }
  }
}
node {
  name: "g_embedding_support_vectors/g_embedding_support_vectors/Module_1/Conv2d_Module_1/BatchNorm/moments/normalize/Square"
  op: "Square"
  input: "g_embedding_support_vectors/g_embedding_support_vectors/Module_1/Conv2d_Module_1/BatchNorm/moments/normalize/shifted_mean"
  attr {
    key: "T"
    value {
      type: DT_FLOAT
    }
  }
  attr {
    key: "_output_shapes"
    value {
      list {
        shape {
          dim {
            size: 64
          }
        }
      }
    }
  }
}
node {
  name: "g_embedding_support_vectors/g_embedding_support_vectors/Module_1/Conv2d_Module_1/BatchNorm/moments/normalize/variance"
  op: "Sub"
  input: "g_embedding_support_vectors/g_embedding_support_vectors/Module_1/Conv2d_Module_1/BatchNorm/moments/normalize/Mul"
  input: "g_embedding_support_vectors/g_embedding_support_vectors/Module_1/Conv2d_Module_1/BatchNorm/moments/normalize/Square"
  attr {
    key: "T"
    value {
      type: DT_FLOAT
    }
  }
  attr {
    key: "_output_shapes"
    value {
      list {
        shape {
          dim {
            size: 64
          }
        }
      }
    }
  }
}
node {
  name: "g_embedding_support_vectors/g_embedding_support_vectors/Module_1/Conv2d_Module_1/BatchNorm/AssignMovingAvg/decay"
  op: "Const"
  attr {
    key: "_class"
    value {
      list {
        s: "loc:@g_embedding_support_vectors/Module_1/Conv2d_Module_1/BatchNorm/moving_mean"
      }
    }
  }
  attr {
    key: "_output_shapes"
    value {
      list {
        shape {
        }
      }
    }
  }
  attr {
    key: "dtype"
    value {
      type: DT_FLOAT
    }
  }
  attr {
    key: "value"
    value {
      tensor {
        dtype: DT_FLOAT
        tensor_shape {
        }
        float_val: 0.000300000014249
      }
    }
  }
}
node {
  name: "g_embedding_support_vectors/g_embedding_support_vectors/Module_1/Conv2d_Module_1/BatchNorm/AssignMovingAvg/sub"
  op: "Sub"
  input: "g_embedding_support_vectors/Module_1/Conv2d_Module_1/BatchNorm/moving_mean/read"
  input: "g_embedding_support_vectors/g_embedding_support_vectors/Module_1/Conv2d_Module_1/BatchNorm/moments/normalize/mean"
  attr {
    key: "T"
    value {
      type: DT_FLOAT
    }
  }
  attr {
    key: "_class"
    value {
      list {
        s: "loc:@g_embedding_support_vectors/Module_1/Conv2d_Module_1/BatchNorm/moving_mean"
      }
    }
  }
  attr {
    key: "_output_shapes"
    value {
      list {
        shape {
          dim {
            size: 64
          }
        }
      }
    }
  }
}
node {
  name: "g_embedding_support_vectors/g_embedding_support_vectors/Module_1/Conv2d_Module_1/BatchNorm/AssignMovingAvg/mul"
  op: "Mul"
  input: "g_embedding_support_vectors/g_embedding_support_vectors/Module_1/Conv2d_Module_1/BatchNorm/AssignMovingAvg/sub"
  input: "g_embedding_support_vectors/g_embedding_support_vectors/Module_1/Conv2d_Module_1/BatchNorm/AssignMovingAvg/decay"
  attr {
    key: "T"
    value {
      type: DT_FLOAT
    }
  }
  attr {
    key: "_class"
    value {
      list {
        s: "loc:@g_embedding_support_vectors/Module_1/Conv2d_Module_1/BatchNorm/moving_mean"
      }
    }
  }
  attr {
    key: "_output_shapes"
    value {
      list {
        shape {
          dim {
            size: 64
          }
        }
      }
    }
  }
}
node {
  name: "g_embedding_support_vectors/g_embedding_support_vectors/Module_1/Conv2d_Module_1/BatchNorm/AssignMovingAvg"
  op: "AssignSub"
  input: "g_embedding_support_vectors/Module_1/Conv2d_Module_1/BatchNorm/moving_mean"
  input: "g_embedding_support_vectors/g_embedding_support_vectors/Module_1/Conv2d_Module_1/BatchNorm/AssignMovingAvg/mul"
  attr {
    key: "T"
    value {
      type: DT_FLOAT
    }
  }
  attr {
    key: "_class"
    value {
      list {
        s: "loc:@g_embedding_support_vectors/Module_1/Conv2d_Module_1/BatchNorm/moving_mean"
      }
    }
  }
  attr {
    key: "_output_shapes"
    value {
      list {
        shape {
          dim {
            size: 64
          }
        }
      }
    }
  }
  attr {
    key: "use_locking"
    value {
      b: false
    }
  }
}
node {
  name: "g_embedding_support_vectors/g_embedding_support_vectors/Module_1/Conv2d_Module_1/BatchNorm/AssignMovingAvg_1/decay"
  op: "Const"
  attr {
    key: "_class"
    value {
      list {
        s: "loc:@g_embedding_support_vectors/Module_1/Conv2d_Module_1/BatchNorm/moving_variance"
      }
    }
  }
  attr {
    key: "_output_shapes"
    value {
      list {
        shape {
        }
      }
    }
  }
  attr {
    key: "dtype"
    value {
      type: DT_FLOAT
    }
  }
  attr {
    key: "value"
    value {
      tensor {
        dtype: DT_FLOAT
        tensor_shape {
        }
        float_val: 0.000300000014249
      }
    }
  }
}
node {
  name: "g_embedding_support_vectors/g_embedding_support_vectors/Module_1/Conv2d_Module_1/BatchNorm/AssignMovingAvg_1/sub"
  op: "Sub"
  input: "g_embedding_support_vectors/Module_1/Conv2d_Module_1/BatchNorm/moving_variance/read"
  input: "g_embedding_support_vectors/g_embedding_support_vectors/Module_1/Conv2d_Module_1/BatchNorm/moments/normalize/variance"
  attr {
    key: "T"
    value {
      type: DT_FLOAT
    }
  }
  attr {
    key: "_class"
    value {
      list {
        s: "loc:@g_embedding_support_vectors/Module_1/Conv2d_Module_1/BatchNorm/moving_variance"
      }
    }
  }
  attr {
    key: "_output_shapes"
    value {
      list {
        shape {
          dim {
            size: 64
          }
        }
      }
    }
  }
}
node {
  name: "g_embedding_support_vectors/g_embedding_support_vectors/Module_1/Conv2d_Module_1/BatchNorm/AssignMovingAvg_1/mul"
  op: "Mul"
  input: "g_embedding_support_vectors/g_embedding_support_vectors/Module_1/Conv2d_Module_1/BatchNorm/AssignMovingAvg_1/sub"
  input: "g_embedding_support_vectors/g_embedding_support_vectors/Module_1/Conv2d_Module_1/BatchNorm/AssignMovingAvg_1/decay"
  attr {
    key: "T"
    value {
      type: DT_FLOAT
    }
  }
  attr {
    key: "_class"
    value {
      list {
        s: "loc:@g_embedding_support_vectors/Module_1/Conv2d_Module_1/BatchNorm/moving_variance"
      }
    }
  }
  attr {
    key: "_output_shapes"
    value {
      list {
        shape {
          dim {
            size: 64
          }
        }
      }
    }
  }
}
node {
  name: "g_embedding_support_vectors/g_embedding_support_vectors/Module_1/Conv2d_Module_1/BatchNorm/AssignMovingAvg_1"
  op: "AssignSub"
  input: "g_embedding_support_vectors/Module_1/Conv2d_Module_1/BatchNorm/moving_variance"
  input: "g_embedding_support_vectors/g_embedding_support_vectors/Module_1/Conv2d_Module_1/BatchNorm/AssignMovingAvg_1/mul"
  attr {
    key: "T"
    value {
      type: DT_FLOAT
    }
  }
  attr {
    key: "_class"
    value {
      list {
        s: "loc:@g_embedding_support_vectors/Module_1/Conv2d_Module_1/BatchNorm/moving_variance"
      }
    }
  }
  attr {
    key: "_output_shapes"
    value {
      list {
        shape {
          dim {
            size: 64
          }
        }
      }
    }
  }
  attr {
    key: "use_locking"
    value {
      b: false
    }
  }
}
node {
  name: "g_embedding_support_vectors/g_embedding_support_vectors/Module_1/Conv2d_Module_1/BatchNorm/batchnorm/add/y"
  op: "Const"
  attr {
    key: "_output_shapes"
    value {
      list {
        shape {
        }
      }
    }
  }
  attr {
    key: "dtype"
    value {
      type: DT_FLOAT
    }
  }
  attr {
    key: "value"
    value {
      tensor {
        dtype: DT_FLOAT
        tensor_shape {
        }
        float_val: 0.0010000000475
      }
    }
  }
}
node {
  name: "g_embedding_support_vectors/g_embedding_support_vectors/Module_1/Conv2d_Module_1/BatchNorm/batchnorm/add"
  op: "Add"
  input: "g_embedding_support_vectors/g_embedding_support_vectors/Module_1/Conv2d_Module_1/BatchNorm/moments/normalize/variance"
  input: "g_embedding_support_vectors/g_embedding_support_vectors/Module_1/Conv2d_Module_1/BatchNorm/batchnorm/add/y"
  attr {
    key: "T"
    value {
      type: DT_FLOAT
    }
  }
  attr {
    key: "_output_shapes"
    value {
      list {
        shape {
          dim {
            size: 64
          }
        }
      }
    }
  }
}
node {
  name: "g_embedding_support_vectors/g_embedding_support_vectors/Module_1/Conv2d_Module_1/BatchNorm/batchnorm/Rsqrt"
  op: "Rsqrt"
  input: "g_embedding_support_vectors/g_embedding_support_vectors/Module_1/Conv2d_Module_1/BatchNorm/batchnorm/add"
  attr {
    key: "T"
    value {
      type: DT_FLOAT
    }
  }
  attr {
    key: "_output_shapes"
    value {
      list {
        shape {
          dim {
            size: 64
          }
        }
      }
    }
  }
}
node {
  name: "g_embedding_support_vectors/g_embedding_support_vectors/Module_1/Conv2d_Module_1/BatchNorm/batchnorm/mul"
  op: "Mul"
  input: "g_embedding_support_vectors/g_embedding_support_vectors/Module_1/Conv2d_Module_1/Conv2D"
  input: "g_embedding_support_vectors/g_embedding_support_vectors/Module_1/Conv2d_Module_1/BatchNorm/batchnorm/Rsqrt"
  attr {
    key: "T"
    value {
      type: DT_FLOAT
    }
  }
  attr {
    key: "_output_shapes"
    value {
      list {
        shape {
          dim {
            size: 5
          }
          dim {
            size: 61
          }
          dim {
            size: 29
          }
          dim {
            size: 64
          }
        }
      }
    }
  }
}
node {
  name: "g_embedding_support_vectors/g_embedding_support_vectors/Module_1/Conv2d_Module_1/BatchNorm/batchnorm/mul_1"
  op: "Mul"
  input: "g_embedding_support_vectors/g_embedding_support_vectors/Module_1/Conv2d_Module_1/BatchNorm/moments/normalize/mean"
  input: "g_embedding_support_vectors/g_embedding_support_vectors/Module_1/Conv2d_Module_1/BatchNorm/batchnorm/Rsqrt"
  attr {
    key: "T"
    value {
      type: DT_FLOAT
    }
  }
  attr {
    key: "_output_shapes"
    value {
      list {
        shape {
          dim {
            size: 64
          }
        }
      }
    }
  }
}
node {
  name: "g_embedding_support_vectors/g_embedding_support_vectors/Module_1/Conv2d_Module_1/BatchNorm/batchnorm/sub"
  op: "Sub"
  input: "g_embedding_support_vectors/Module_1/Conv2d_Module_1/BatchNorm/beta/read"
  input: "g_embedding_support_vectors/g_embedding_support_vectors/Module_1/Conv2d_Module_1/BatchNorm/batchnorm/mul_1"
  attr {
    key: "T"
    value {
      type: DT_FLOAT
    }
  }
  attr {
    key: "_output_shapes"
    value {
      list {
        shape {
          dim {
            size: 64
          }
        }
      }
    }
  }
}
node {
  name: "g_embedding_support_vectors/g_embedding_support_vectors/Module_1/Conv2d_Module_1/BatchNorm/batchnorm/add_1"
  op: "Add"
  input: "g_embedding_support_vectors/g_embedding_support_vectors/Module_1/Conv2d_Module_1/BatchNorm/batchnorm/mul"
  input: "g_embedding_support_vectors/g_embedding_support_vectors/Module_1/Conv2d_Module_1/BatchNorm/batchnorm/sub"
  attr {
    key: "T"
    value {
      type: DT_FLOAT
    }
  }
  attr {
    key: "_output_shapes"
    value {
      list {
        shape {
          dim {
            size: 5
          }
          dim {
            size: 61
          }
          dim {
            size: 29
          }
          dim {
            size: 64
          }
        }
      }
    }
  }
}
node {
  name: "g_embedding_support_vectors/g_embedding_support_vectors/Module_1/Conv2d_Module_1/Relu"
  op: "Relu"
  input: "g_embedding_support_vectors/g_embedding_support_vectors/Module_1/Conv2d_Module_1/BatchNorm/batchnorm/add_1"
  attr {
    key: "T"
    value {
      type: DT_FLOAT
    }
  }
  attr {
    key: "_output_shapes"
    value {
      list {
        shape {
          dim {
            size: 5
          }
          dim {
            size: 61
          }
          dim {
            size: 29
          }
          dim {
            size: 64
          }
        }
      }
    }
  }
}
node {
  name: "g_embedding_support_vectors/g_embedding_support_vectors/Module_1/MaxPool_Module_1/MaxPool"
  op: "MaxPool"
  input: "g_embedding_support_vectors/g_embedding_support_vectors/Module_1/Conv2d_Module_1/Relu"
  attr {
    key: "T"
    value {
      type: DT_FLOAT
    }
  }
  attr {
    key: "_output_shapes"
    value {
      list {
        shape {
          dim {
            size: 5
          }
          dim {
            size: 30
          }
          dim {
            size: 14
          }
          dim {
            size: 64
          }
        }
      }
    }
  }
  attr {
    key: "data_format"
    value {
      s: "NHWC"
    }
  }
  attr {
    key: "ksize"
    value {
      list {
        i: 1
        i: 2
        i: 2
        i: 1
      }
    }
  }
  attr {
    key: "padding"
    value {
      s: "VALID"
    }
  }
  attr {
    key: "strides"
    value {
      list {
        i: 1
        i: 2
        i: 2
        i: 1
      }
    }
  }
}
node {
  name: "g_embedding_support_vectors/Module_2/Conv2d_Module_2/weights"
  op: "Variable"
  attr {
    key: "_output_shapes"
    value {
      list {
        shape {
          dim {
            size: 3
          }
          dim {
            size: 3
          }
          dim {
            size: 64
          }
          dim {
            size: 64
          }
        }
      }
    }
  }
  attr {
    key: "container"
    value {
      s: ""
    }
  }
  attr {
    key: "dtype"
    value {
      type: DT_FLOAT
    }
  }
  attr {
    key: "shape"
    value {
      shape {
        dim {
          size: 3
        }
        dim {
          size: 3
        }
        dim {
          size: 64
        }
        dim {
          size: 64
        }
      }
    }
  }
  attr {
    key: "shared_name"
    value {
      s: ""
    }
  }
}
node {
  name: "g_embedding_support_vectors/Module_2/Conv2d_Module_2/weights/Initializer/truncated_normal/shape"
  op: "Const"
  attr {
    key: "_class"
    value {
      list {
        s: "loc:@g_embedding_support_vectors/Module_2/Conv2d_Module_2/weights"
      }
    }
  }
  attr {
    key: "_output_shapes"
    value {
      list {
        shape {
          dim {
            size: 4
          }
        }
      }
    }
  }
  attr {
    key: "dtype"
    value {
      type: DT_INT32
    }
  }
  attr {
    key: "value"
    value {
      tensor {
        dtype: DT_INT32
        tensor_shape {
          dim {
            size: 4
          }
        }
        tensor_content: "\003\000\000\000\003\000\000\000@\000\000\000@\000\000\000"
      }
    }
  }
}
node {
  name: "g_embedding_support_vectors/Module_2/Conv2d_Module_2/weights/Initializer/truncated_normal/mean"
  op: "Const"
  attr {
    key: "_class"
    value {
      list {
        s: "loc:@g_embedding_support_vectors/Module_2/Conv2d_Module_2/weights"
      }
    }
  }
  attr {
    key: "_output_shapes"
    value {
      list {
        shape {
        }
      }
    }
  }
  attr {
    key: "dtype"
    value {
      type: DT_FLOAT
    }
  }
  attr {
    key: "value"
    value {
      tensor {
        dtype: DT_FLOAT
        tensor_shape {
        }
        float_val: 0.0
      }
    }
  }
}
node {
  name: "g_embedding_support_vectors/Module_2/Conv2d_Module_2/weights/Initializer/truncated_normal/stddev"
  op: "Const"
  attr {
    key: "_class"
    value {
      list {
        s: "loc:@g_embedding_support_vectors/Module_2/Conv2d_Module_2/weights"
      }
    }
  }
  attr {
    key: "_output_shapes"
    value {
      list {
        shape {
        }
      }
    }
  }
  attr {
    key: "dtype"
    value {
      type: DT_FLOAT
    }
  }
  attr {
    key: "value"
    value {
      tensor {
        dtype: DT_FLOAT
        tensor_shape {
        }
        float_val: 0.10000000149
      }
    }
  }
}
node {
  name: "g_embedding_support_vectors/Module_2/Conv2d_Module_2/weights/Initializer/truncated_normal/TruncatedNormal"
  op: "TruncatedNormal"
  input: "g_embedding_support_vectors/Module_2/Conv2d_Module_2/weights/Initializer/truncated_normal/shape"
  attr {
    key: "T"
    value {
      type: DT_INT32
    }
  }
  attr {
    key: "_class"
    value {
      list {
        s: "loc:@g_embedding_support_vectors/Module_2/Conv2d_Module_2/weights"
      }
    }
  }
  attr {
    key: "_output_shapes"
    value {
      list {
        shape {
          dim {
            size: 3
          }
          dim {
            size: 3
          }
          dim {
            size: 64
          }
          dim {
            size: 64
          }
        }
      }
    }
  }
  attr {
    key: "dtype"
    value {
      type: DT_FLOAT
    }
  }
  attr {
    key: "seed"
    value {
      i: 0
    }
  }
  attr {
    key: "seed2"
    value {
      i: 0
    }
  }
}
node {
  name: "g_embedding_support_vectors/Module_2/Conv2d_Module_2/weights/Initializer/truncated_normal/mul"
  op: "Mul"
  input: "g_embedding_support_vectors/Module_2/Conv2d_Module_2/weights/Initializer/truncated_normal/TruncatedNormal"
  input: "g_embedding_support_vectors/Module_2/Conv2d_Module_2/weights/Initializer/truncated_normal/stddev"
  attr {
    key: "T"
    value {
      type: DT_FLOAT
    }
  }
  attr {
    key: "_class"
    value {
      list {
        s: "loc:@g_embedding_support_vectors/Module_2/Conv2d_Module_2/weights"
      }
    }
  }
  attr {
    key: "_output_shapes"
    value {
      list {
        shape {
          dim {
            size: 3
          }
          dim {
            size: 3
          }
          dim {
            size: 64
          }
          dim {
            size: 64
          }
        }
      }
    }
  }
}
node {
  name: "g_embedding_support_vectors/Module_2/Conv2d_Module_2/weights/Initializer/truncated_normal"
  op: "Add"
  input: "g_embedding_support_vectors/Module_2/Conv2d_Module_2/weights/Initializer/truncated_normal/mul"
  input: "g_embedding_support_vectors/Module_2/Conv2d_Module_2/weights/Initializer/truncated_normal/mean"
  attr {
    key: "T"
    value {
      type: DT_FLOAT
    }
  }
  attr {
    key: "_class"
    value {
      list {
        s: "loc:@g_embedding_support_vectors/Module_2/Conv2d_Module_2/weights"
      }
    }
  }
  attr {
    key: "_output_shapes"
    value {
      list {
        shape {
          dim {
            size: 3
          }
          dim {
            size: 3
          }
          dim {
            size: 64
          }
          dim {
            size: 64
          }
        }
      }
    }
  }
}
node {
  name: "g_embedding_support_vectors/Module_2/Conv2d_Module_2/weights/Assign"
  op: "Assign"
  input: "g_embedding_support_vectors/Module_2/Conv2d_Module_2/weights"
  input: "g_embedding_support_vectors/Module_2/Conv2d_Module_2/weights/Initializer/truncated_normal"
  attr {
    key: "T"
    value {
      type: DT_FLOAT
    }
  }
  attr {
    key: "_class"
    value {
      list {
        s: "loc:@g_embedding_support_vectors/Module_2/Conv2d_Module_2/weights"
      }
    }
  }
  attr {
    key: "_output_shapes"
    value {
      list {
        shape {
          dim {
            size: 3
          }
          dim {
            size: 3
          }
          dim {
            size: 64
          }
          dim {
            size: 64
          }
        }
      }
    }
  }
  attr {
    key: "use_locking"
    value {
      b: true
    }
  }
  attr {
    key: "validate_shape"
    value {
      b: true
    }
  }
}
node {
  name: "g_embedding_support_vectors/Module_2/Conv2d_Module_2/weights/read"
  op: "Identity"
  input: "g_embedding_support_vectors/Module_2/Conv2d_Module_2/weights"
  attr {
    key: "T"
    value {
      type: DT_FLOAT
    }
  }
  attr {
    key: "_class"
    value {
      list {
        s: "loc:@g_embedding_support_vectors/Module_2/Conv2d_Module_2/weights"
      }
    }
  }
  attr {
    key: "_output_shapes"
    value {
      list {
        shape {
          dim {
            size: 3
          }
          dim {
            size: 3
          }
          dim {
            size: 64
          }
          dim {
            size: 64
          }
        }
      }
    }
  }
}
node {
  name: "g_embedding_support_vectors/Module_2/Conv2d_Module_2/weights/Regularizer/l2_regularizer/scale"
  op: "Const"
  attr {
    key: "_class"
    value {
      list {
        s: "loc:@g_embedding_support_vectors/Module_2/Conv2d_Module_2/weights"
      }
    }
  }
  attr {
    key: "_output_shapes"
    value {
      list {
        shape {
        }
      }
    }
  }
  attr {
    key: "dtype"
    value {
      type: DT_FLOAT
    }
  }
  attr {
    key: "value"
    value {
      tensor {
        dtype: DT_FLOAT
        tensor_shape {
        }
        float_val: 3.99999989895e-05
      }
    }
  }
}
node {
  name: "g_embedding_support_vectors/Module_2/Conv2d_Module_2/weights/Regularizer/l2_regularizer/L2Loss"
  op: "L2Loss"
  input: "g_embedding_support_vectors/Module_2/Conv2d_Module_2/weights/read"
  attr {
    key: "T"
    value {
      type: DT_FLOAT
    }
  }
  attr {
    key: "_class"
    value {
      list {
        s: "loc:@g_embedding_support_vectors/Module_2/Conv2d_Module_2/weights"
      }
    }
  }
  attr {
    key: "_output_shapes"
    value {
      list {
        shape {
        }
      }
    }
  }
}
node {
  name: "g_embedding_support_vectors/Module_2/Conv2d_Module_2/weights/Regularizer/l2_regularizer"
  op: "Mul"
  input: "g_embedding_support_vectors/Module_2/Conv2d_Module_2/weights/Regularizer/l2_regularizer/scale"
  input: "g_embedding_support_vectors/Module_2/Conv2d_Module_2/weights/Regularizer/l2_regularizer/L2Loss"
  attr {
    key: "T"
    value {
      type: DT_FLOAT
    }
  }
  attr {
    key: "_class"
    value {
      list {
        s: "loc:@g_embedding_support_vectors/Module_2/Conv2d_Module_2/weights"
      }
    }
  }
  attr {
    key: "_output_shapes"
    value {
      list {
        shape {
        }
      }
    }
  }
}
node {
  name: "g_embedding_support_vectors/g_embedding_support_vectors/Module_2/Conv2d_Module_2/Conv2D"
  op: "Conv2D"
  input: "g_embedding_support_vectors/g_embedding_support_vectors/Module_1/MaxPool_Module_1/MaxPool"
  input: "g_embedding_support_vectors/Module_2/Conv2d_Module_2/weights/read"
  attr {
    key: "T"
    value {
      type: DT_FLOAT
    }
  }
  attr {
    key: "_output_shapes"
    value {
      list {
        shape {
          dim {
            size: 5
          }
          dim {
            size: 28
          }
          dim {
            size: 12
          }
          dim {
            size: 64
          }
        }
      }
    }
  }
  attr {
    key: "data_format"
    value {
      s: "NHWC"
    }
  }
  attr {
    key: "padding"
    value {
      s: "VALID"
    }
  }
  attr {
    key: "strides"
    value {
      list {
        i: 1
        i: 1
        i: 1
        i: 1
      }
    }
  }
  attr {
    key: "use_cudnn_on_gpu"
    value {
      b: true
    }
  }
}
node {
  name: "g_embedding_support_vectors/Module_2/Conv2d_Module_2/BatchNorm/beta"
  op: "Variable"
  attr {
    key: "_output_shapes"
    value {
      list {
        shape {
          dim {
            size: 64
          }
        }
      }
    }
  }
  attr {
    key: "container"
    value {
      s: ""
    }
  }
  attr {
    key: "dtype"
    value {
      type: DT_FLOAT
    }
  }
  attr {
    key: "shape"
    value {
      shape {
        dim {
          size: 64
        }
      }
    }
  }
  attr {
    key: "shared_name"
    value {
      s: ""
    }
  }
}
node {
  name: "g_embedding_support_vectors/Module_2/Conv2d_Module_2/BatchNorm/beta/Initializer/zeros"
  op: "Const"
  attr {
    key: "_class"
    value {
      list {
        s: "loc:@g_embedding_support_vectors/Module_2/Conv2d_Module_2/BatchNorm/beta"
      }
    }
  }
  attr {
    key: "_output_shapes"
    value {
      list {
        shape {
          dim {
            size: 64
          }
        }
      }
    }
  }
  attr {
    key: "dtype"
    value {
      type: DT_FLOAT
    }
  }
  attr {
    key: "value"
    value {
      tensor {
        dtype: DT_FLOAT
        tensor_shape {
          dim {
            size: 64
          }
        }
        float_val: 0.0
      }
    }
  }
}
node {
  name: "g_embedding_support_vectors/Module_2/Conv2d_Module_2/BatchNorm/beta/Assign"
  op: "Assign"
  input: "g_embedding_support_vectors/Module_2/Conv2d_Module_2/BatchNorm/beta"
  input: "g_embedding_support_vectors/Module_2/Conv2d_Module_2/BatchNorm/beta/Initializer/zeros"
  attr {
    key: "T"
    value {
      type: DT_FLOAT
    }
  }
  attr {
    key: "_class"
    value {
      list {
        s: "loc:@g_embedding_support_vectors/Module_2/Conv2d_Module_2/BatchNorm/beta"
      }
    }
  }
  attr {
    key: "_output_shapes"
    value {
      list {
        shape {
          dim {
            size: 64
          }
        }
      }
    }
  }
  attr {
    key: "use_locking"
    value {
      b: true
    }
  }
  attr {
    key: "validate_shape"
    value {
      b: true
    }
  }
}
node {
  name: "g_embedding_support_vectors/Module_2/Conv2d_Module_2/BatchNorm/beta/read"
  op: "Identity"
  input: "g_embedding_support_vectors/Module_2/Conv2d_Module_2/BatchNorm/beta"
  attr {
    key: "T"
    value {
      type: DT_FLOAT
    }
  }
  attr {
    key: "_class"
    value {
      list {
        s: "loc:@g_embedding_support_vectors/Module_2/Conv2d_Module_2/BatchNorm/beta"
      }
    }
  }
  attr {
    key: "_output_shapes"
    value {
      list {
        shape {
          dim {
            size: 64
          }
        }
      }
    }
  }
}
node {
  name: "g_embedding_support_vectors/Module_2/Conv2d_Module_2/BatchNorm/moving_mean"
  op: "Variable"
  attr {
    key: "_output_shapes"
    value {
      list {
        shape {
          dim {
            size: 64
          }
        }
      }
    }
  }
  attr {
    key: "container"
    value {
      s: ""
    }
  }
  attr {
    key: "dtype"
    value {
      type: DT_FLOAT
    }
  }
  attr {
    key: "shape"
    value {
      shape {
        dim {
          size: 64
        }
      }
    }
  }
  attr {
    key: "shared_name"
    value {
      s: ""
    }
  }
}
node {
  name: "g_embedding_support_vectors/Module_2/Conv2d_Module_2/BatchNorm/moving_mean/Initializer/zeros"
  op: "Const"
  attr {
    key: "_class"
    value {
      list {
        s: "loc:@g_embedding_support_vectors/Module_2/Conv2d_Module_2/BatchNorm/moving_mean"
      }
    }
  }
  attr {
    key: "_output_shapes"
    value {
      list {
        shape {
          dim {
            size: 64
          }
        }
      }
    }
  }
  attr {
    key: "dtype"
    value {
      type: DT_FLOAT
    }
  }
  attr {
    key: "value"
    value {
      tensor {
        dtype: DT_FLOAT
        tensor_shape {
          dim {
            size: 64
          }
        }
        float_val: 0.0
      }
    }
  }
}
node {
  name: "g_embedding_support_vectors/Module_2/Conv2d_Module_2/BatchNorm/moving_mean/Assign"
  op: "Assign"
  input: "g_embedding_support_vectors/Module_2/Conv2d_Module_2/BatchNorm/moving_mean"
  input: "g_embedding_support_vectors/Module_2/Conv2d_Module_2/BatchNorm/moving_mean/Initializer/zeros"
  attr {
    key: "T"
    value {
      type: DT_FLOAT
    }
  }
  attr {
    key: "_class"
    value {
      list {
        s: "loc:@g_embedding_support_vectors/Module_2/Conv2d_Module_2/BatchNorm/moving_mean"
      }
    }
  }
  attr {
    key: "_output_shapes"
    value {
      list {
        shape {
          dim {
            size: 64
          }
        }
      }
    }
  }
  attr {
    key: "use_locking"
    value {
      b: true
    }
  }
  attr {
    key: "validate_shape"
    value {
      b: true
    }
  }
}
node {
  name: "g_embedding_support_vectors/Module_2/Conv2d_Module_2/BatchNorm/moving_mean/read"
  op: "Identity"
  input: "g_embedding_support_vectors/Module_2/Conv2d_Module_2/BatchNorm/moving_mean"
  attr {
    key: "T"
    value {
      type: DT_FLOAT
    }
  }
  attr {
    key: "_class"
    value {
      list {
        s: "loc:@g_embedding_support_vectors/Module_2/Conv2d_Module_2/BatchNorm/moving_mean"
      }
    }
  }
  attr {
    key: "_output_shapes"
    value {
      list {
        shape {
          dim {
            size: 64
          }
        }
      }
    }
  }
}
node {
  name: "g_embedding_support_vectors/Module_2/Conv2d_Module_2/BatchNorm/moving_variance"
  op: "Variable"
  attr {
    key: "_output_shapes"
    value {
      list {
        shape {
          dim {
            size: 64
          }
        }
      }
    }
  }
  attr {
    key: "container"
    value {
      s: ""
    }
  }
  attr {
    key: "dtype"
    value {
      type: DT_FLOAT
    }
  }
  attr {
    key: "shape"
    value {
      shape {
        dim {
          size: 64
        }
      }
    }
  }
  attr {
    key: "shared_name"
    value {
      s: ""
    }
  }
}
node {
  name: "g_embedding_support_vectors/Module_2/Conv2d_Module_2/BatchNorm/moving_variance/Initializer/ones"
  op: "Const"
  attr {
    key: "_class"
    value {
      list {
        s: "loc:@g_embedding_support_vectors/Module_2/Conv2d_Module_2/BatchNorm/moving_variance"
      }
    }
  }
  attr {
    key: "_output_shapes"
    value {
      list {
        shape {
          dim {
            size: 64
          }
        }
      }
    }
  }
  attr {
    key: "dtype"
    value {
      type: DT_FLOAT
    }
  }
  attr {
    key: "value"
    value {
      tensor {
        dtype: DT_FLOAT
        tensor_shape {
          dim {
            size: 64
          }
        }
        float_val: 1.0
      }
    }
  }
}
node {
  name: "g_embedding_support_vectors/Module_2/Conv2d_Module_2/BatchNorm/moving_variance/Assign"
  op: "Assign"
  input: "g_embedding_support_vectors/Module_2/Conv2d_Module_2/BatchNorm/moving_variance"
  input: "g_embedding_support_vectors/Module_2/Conv2d_Module_2/BatchNorm/moving_variance/Initializer/ones"
  attr {
    key: "T"
    value {
      type: DT_FLOAT
    }
  }
  attr {
    key: "_class"
    value {
      list {
        s: "loc:@g_embedding_support_vectors/Module_2/Conv2d_Module_2/BatchNorm/moving_variance"
      }
    }
  }
  attr {
    key: "_output_shapes"
    value {
      list {
        shape {
          dim {
            size: 64
          }
        }
      }
    }
  }
  attr {
    key: "use_locking"
    value {
      b: true
    }
  }
  attr {
    key: "validate_shape"
    value {
      b: true
    }
  }
}
node {
  name: "g_embedding_support_vectors/Module_2/Conv2d_Module_2/BatchNorm/moving_variance/read"
  op: "Identity"
  input: "g_embedding_support_vectors/Module_2/Conv2d_Module_2/BatchNorm/moving_variance"
  attr {
    key: "T"
    value {
      type: DT_FLOAT
    }
  }
  attr {
    key: "_class"
    value {
      list {
        s: "loc:@g_embedding_support_vectors/Module_2/Conv2d_Module_2/BatchNorm/moving_variance"
      }
    }
  }
  attr {
    key: "_output_shapes"
    value {
      list {
        shape {
          dim {
            size: 64
          }
        }
      }
    }
  }
}
node {
  name: "g_embedding_support_vectors/g_embedding_support_vectors/Module_2/Conv2d_Module_2/BatchNorm/Add/y"
  op: "Const"
  attr {
    key: "_output_shapes"
    value {
      list {
        shape {
        }
      }
    }
  }
  attr {
    key: "dtype"
    value {
      type: DT_FLOAT
    }
  }
  attr {
    key: "value"
    value {
      tensor {
        dtype: DT_FLOAT
        tensor_shape {
        }
        float_val: 0.0
      }
    }
  }
}
node {
  name: "g_embedding_support_vectors/g_embedding_support_vectors/Module_2/Conv2d_Module_2/BatchNorm/Add"
  op: "Add"
  input: "g_embedding_support_vectors/Module_2/Conv2d_Module_2/BatchNorm/moving_mean/read"
  input: "g_embedding_support_vectors/g_embedding_support_vectors/Module_2/Conv2d_Module_2/BatchNorm/Add/y"
  attr {
    key: "T"
    value {
      type: DT_FLOAT
    }
  }
  attr {
    key: "_output_shapes"
    value {
      list {
        shape {
          dim {
            size: 64
          }
        }
      }
    }
  }
}
node {
  name: "g_embedding_support_vectors/g_embedding_support_vectors/Module_2/Conv2d_Module_2/BatchNorm/moments/sufficient_statistics/Const"
  op: "Const"
  attr {
    key: "_output_shapes"
    value {
      list {
        shape {
        }
      }
    }
  }
  attr {
    key: "dtype"
    value {
      type: DT_FLOAT
    }
  }
  attr {
    key: "value"
    value {
      tensor {
        dtype: DT_FLOAT
        tensor_shape {
        }
        float_val: 1680.0
      }
    }
  }
}
node {
  name: "g_embedding_support_vectors/g_embedding_support_vectors/Module_2/Conv2d_Module_2/BatchNorm/moments/sufficient_statistics/Sub"
  op: "Sub"
  input: "g_embedding_support_vectors/g_embedding_support_vectors/Module_2/Conv2d_Module_2/Conv2D"
  input: "g_embedding_support_vectors/g_embedding_support_vectors/Module_2/Conv2d_Module_2/BatchNorm/Add"
  attr {
    key: "T"
    value {
      type: DT_FLOAT
    }
  }
  attr {
    key: "_output_shapes"
    value {
      list {
        shape {
          dim {
            size: 5
          }
          dim {
            size: 28
          }
          dim {
            size: 12
          }
          dim {
            size: 64
          }
        }
      }
    }
  }
}
node {
  name: "g_embedding_support_vectors/g_embedding_support_vectors/Module_2/Conv2d_Module_2/BatchNorm/moments/sufficient_statistics/SquaredDifference"
  op: "SquaredDifference"
  input: "g_embedding_support_vectors/g_embedding_support_vectors/Module_2/Conv2d_Module_2/Conv2D"
  input: "g_embedding_support_vectors/g_embedding_support_vectors/Module_2/Conv2d_Module_2/BatchNorm/Add"
  attr {
    key: "T"
    value {
      type: DT_FLOAT
    }
  }
  attr {
    key: "_output_shapes"
    value {
      list {
        shape {
          dim {
            size: 5
          }
          dim {
            size: 28
          }
          dim {
            size: 12
          }
          dim {
            size: 64
          }
        }
      }
    }
  }
}
node {
  name: "g_embedding_support_vectors/g_embedding_support_vectors/Module_2/Conv2d_Module_2/BatchNorm/moments/sufficient_statistics/mean_ss/reduction_indices"
  op: "Const"
  attr {
    key: "_output_shapes"
    value {
      list {
        shape {
          dim {
            size: 3
          }
        }
      }
    }
  }
  attr {
    key: "dtype"
    value {
      type: DT_INT32
    }
  }
  attr {
    key: "value"
    value {
      tensor {
        dtype: DT_INT32
        tensor_shape {
          dim {
            size: 3
          }
        }
        tensor_content: "\000\000\000\000\001\000\000\000\002\000\000\000"
      }
    }
  }
}
node {
  name: "g_embedding_support_vectors/g_embedding_support_vectors/Module_2/Conv2d_Module_2/BatchNorm/moments/sufficient_statistics/mean_ss"
  op: "Sum"
  input: "g_embedding_support_vectors/g_embedding_support_vectors/Module_2/Conv2d_Module_2/BatchNorm/moments/sufficient_statistics/Sub"
  input: "g_embedding_support_vectors/g_embedding_support_vectors/Module_2/Conv2d_Module_2/BatchNorm/moments/sufficient_statistics/mean_ss/reduction_indices"
  attr {
    key: "T"
    value {
      type: DT_FLOAT
    }
  }
  attr {
    key: "Tidx"
    value {
      type: DT_INT32
    }
  }
  attr {
    key: "_output_shapes"
    value {
      list {
        shape {
          dim {
            size: 64
          }
        }
      }
    }
  }
  attr {
    key: "keep_dims"
    value {
      b: false
    }
  }
}
node {
  name: "g_embedding_support_vectors/g_embedding_support_vectors/Module_2/Conv2d_Module_2/BatchNorm/moments/sufficient_statistics/var_ss/reduction_indices"
  op: "Const"
  attr {
    key: "_output_shapes"
    value {
      list {
        shape {
          dim {
            size: 3
          }
        }
      }
    }
  }
  attr {
    key: "dtype"
    value {
      type: DT_INT32
    }
  }
  attr {
    key: "value"
    value {
      tensor {
        dtype: DT_INT32
        tensor_shape {
          dim {
            size: 3
          }
        }
        tensor_content: "\000\000\000\000\001\000\000\000\002\000\000\000"
      }
    }
  }
}
node {
  name: "g_embedding_support_vectors/g_embedding_support_vectors/Module_2/Conv2d_Module_2/BatchNorm/moments/sufficient_statistics/var_ss"
  op: "Sum"
  input: "g_embedding_support_vectors/g_embedding_support_vectors/Module_2/Conv2d_Module_2/BatchNorm/moments/sufficient_statistics/SquaredDifference"
  input: "g_embedding_support_vectors/g_embedding_support_vectors/Module_2/Conv2d_Module_2/BatchNorm/moments/sufficient_statistics/var_ss/reduction_indices"
  attr {
    key: "T"
    value {
      type: DT_FLOAT
    }
  }
  attr {
    key: "Tidx"
    value {
      type: DT_INT32
    }
  }
  attr {
    key: "_output_shapes"
    value {
      list {
        shape {
          dim {
            size: 64
          }
        }
      }
    }
  }
  attr {
    key: "keep_dims"
    value {
      b: false
    }
  }
}
node {
  name: "g_embedding_support_vectors/g_embedding_support_vectors/Module_2/Conv2d_Module_2/BatchNorm/moments/normalize/divisor"
  op: "Inv"
  input: "g_embedding_support_vectors/g_embedding_support_vectors/Module_2/Conv2d_Module_2/BatchNorm/moments/sufficient_statistics/Const"
  input: "^g_embedding_support_vectors/g_embedding_support_vectors/Module_2/Conv2d_Module_2/BatchNorm/moments/sufficient_statistics/mean_ss"
  input: "^g_embedding_support_vectors/g_embedding_support_vectors/Module_2/Conv2d_Module_2/BatchNorm/moments/sufficient_statistics/var_ss"
  attr {
    key: "T"
    value {
      type: DT_FLOAT
    }
  }
  attr {
    key: "_output_shapes"
    value {
      list {
        shape {
        }
      }
    }
  }
}
node {
  name: "g_embedding_support_vectors/g_embedding_support_vectors/Module_2/Conv2d_Module_2/BatchNorm/moments/normalize/shifted_mean"
  op: "Mul"
  input: "g_embedding_support_vectors/g_embedding_support_vectors/Module_2/Conv2d_Module_2/BatchNorm/moments/sufficient_statistics/mean_ss"
  input: "g_embedding_support_vectors/g_embedding_support_vectors/Module_2/Conv2d_Module_2/BatchNorm/moments/normalize/divisor"
  attr {
    key: "T"
    value {
      type: DT_FLOAT
    }
  }
  attr {
    key: "_output_shapes"
    value {
      list {
        shape {
          dim {
            size: 64
          }
        }
      }
    }
  }
}
node {
  name: "g_embedding_support_vectors/g_embedding_support_vectors/Module_2/Conv2d_Module_2/BatchNorm/moments/normalize/mean"
  op: "Add"
  input: "g_embedding_support_vectors/g_embedding_support_vectors/Module_2/Conv2d_Module_2/BatchNorm/moments/normalize/shifted_mean"
  input: "g_embedding_support_vectors/g_embedding_support_vectors/Module_2/Conv2d_Module_2/BatchNorm/Add"
  attr {
    key: "T"
    value {
      type: DT_FLOAT
    }
  }
  attr {
    key: "_output_shapes"
    value {
      list {
        shape {
          dim {
            size: 64
          }
        }
      }
    }
  }
}
node {
  name: "g_embedding_support_vectors/g_embedding_support_vectors/Module_2/Conv2d_Module_2/BatchNorm/moments/normalize/Mul"
  op: "Mul"
  input: "g_embedding_support_vectors/g_embedding_support_vectors/Module_2/Conv2d_Module_2/BatchNorm/moments/sufficient_statistics/var_ss"
  input: "g_embedding_support_vectors/g_embedding_support_vectors/Module_2/Conv2d_Module_2/BatchNorm/moments/normalize/divisor"
  attr {
    key: "T"
    value {
      type: DT_FLOAT
    }
  }
  attr {
    key: "_output_shapes"
    value {
      list {
        shape {
          dim {
            size: 64
          }
        }
      }
    }
  }
}
node {
  name: "g_embedding_support_vectors/g_embedding_support_vectors/Module_2/Conv2d_Module_2/BatchNorm/moments/normalize/Square"
  op: "Square"
  input: "g_embedding_support_vectors/g_embedding_support_vectors/Module_2/Conv2d_Module_2/BatchNorm/moments/normalize/shifted_mean"
  attr {
    key: "T"
    value {
      type: DT_FLOAT
    }
  }
  attr {
    key: "_output_shapes"
    value {
      list {
        shape {
          dim {
            size: 64
          }
        }
      }
    }
  }
}
node {
  name: "g_embedding_support_vectors/g_embedding_support_vectors/Module_2/Conv2d_Module_2/BatchNorm/moments/normalize/variance"
  op: "Sub"
  input: "g_embedding_support_vectors/g_embedding_support_vectors/Module_2/Conv2d_Module_2/BatchNorm/moments/normalize/Mul"
  input: "g_embedding_support_vectors/g_embedding_support_vectors/Module_2/Conv2d_Module_2/BatchNorm/moments/normalize/Square"
  attr {
    key: "T"
    value {
      type: DT_FLOAT
    }
  }
  attr {
    key: "_output_shapes"
    value {
      list {
        shape {
          dim {
            size: 64
          }
        }
      }
    }
  }
}
node {
  name: "g_embedding_support_vectors/g_embedding_support_vectors/Module_2/Conv2d_Module_2/BatchNorm/AssignMovingAvg/decay"
  op: "Const"
  attr {
    key: "_class"
    value {
      list {
        s: "loc:@g_embedding_support_vectors/Module_2/Conv2d_Module_2/BatchNorm/moving_mean"
      }
    }
  }
  attr {
    key: "_output_shapes"
    value {
      list {
        shape {
        }
      }
    }
  }
  attr {
    key: "dtype"
    value {
      type: DT_FLOAT
    }
  }
  attr {
    key: "value"
    value {
      tensor {
        dtype: DT_FLOAT
        tensor_shape {
        }
        float_val: 0.000300000014249
      }
    }
  }
}
node {
  name: "g_embedding_support_vectors/g_embedding_support_vectors/Module_2/Conv2d_Module_2/BatchNorm/AssignMovingAvg/sub"
  op: "Sub"
  input: "g_embedding_support_vectors/Module_2/Conv2d_Module_2/BatchNorm/moving_mean/read"
  input: "g_embedding_support_vectors/g_embedding_support_vectors/Module_2/Conv2d_Module_2/BatchNorm/moments/normalize/mean"
  attr {
    key: "T"
    value {
      type: DT_FLOAT
    }
  }
  attr {
    key: "_class"
    value {
      list {
        s: "loc:@g_embedding_support_vectors/Module_2/Conv2d_Module_2/BatchNorm/moving_mean"
      }
    }
  }
  attr {
    key: "_output_shapes"
    value {
      list {
        shape {
          dim {
            size: 64
          }
        }
      }
    }
  }
}
node {
  name: "g_embedding_support_vectors/g_embedding_support_vectors/Module_2/Conv2d_Module_2/BatchNorm/AssignMovingAvg/mul"
  op: "Mul"
  input: "g_embedding_support_vectors/g_embedding_support_vectors/Module_2/Conv2d_Module_2/BatchNorm/AssignMovingAvg/sub"
  input: "g_embedding_support_vectors/g_embedding_support_vectors/Module_2/Conv2d_Module_2/BatchNorm/AssignMovingAvg/decay"
  attr {
    key: "T"
    value {
      type: DT_FLOAT
    }
  }
  attr {
    key: "_class"
    value {
      list {
        s: "loc:@g_embedding_support_vectors/Module_2/Conv2d_Module_2/BatchNorm/moving_mean"
      }
    }
  }
  attr {
    key: "_output_shapes"
    value {
      list {
        shape {
          dim {
            size: 64
          }
        }
      }
    }
  }
}
node {
  name: "g_embedding_support_vectors/g_embedding_support_vectors/Module_2/Conv2d_Module_2/BatchNorm/AssignMovingAvg"
  op: "AssignSub"
  input: "g_embedding_support_vectors/Module_2/Conv2d_Module_2/BatchNorm/moving_mean"
  input: "g_embedding_support_vectors/g_embedding_support_vectors/Module_2/Conv2d_Module_2/BatchNorm/AssignMovingAvg/mul"
  attr {
    key: "T"
    value {
      type: DT_FLOAT
    }
  }
  attr {
    key: "_class"
    value {
      list {
        s: "loc:@g_embedding_support_vectors/Module_2/Conv2d_Module_2/BatchNorm/moving_mean"
      }
    }
  }
  attr {
    key: "_output_shapes"
    value {
      list {
        shape {
          dim {
            size: 64
          }
        }
      }
    }
  }
  attr {
    key: "use_locking"
    value {
      b: false
    }
  }
}
node {
  name: "g_embedding_support_vectors/g_embedding_support_vectors/Module_2/Conv2d_Module_2/BatchNorm/AssignMovingAvg_1/decay"
  op: "Const"
  attr {
    key: "_class"
    value {
      list {
        s: "loc:@g_embedding_support_vectors/Module_2/Conv2d_Module_2/BatchNorm/moving_variance"
      }
    }
  }
  attr {
    key: "_output_shapes"
    value {
      list {
        shape {
        }
      }
    }
  }
  attr {
    key: "dtype"
    value {
      type: DT_FLOAT
    }
  }
  attr {
    key: "value"
    value {
      tensor {
        dtype: DT_FLOAT
        tensor_shape {
        }
        float_val: 0.000300000014249
      }
    }
  }
}
node {
  name: "g_embedding_support_vectors/g_embedding_support_vectors/Module_2/Conv2d_Module_2/BatchNorm/AssignMovingAvg_1/sub"
  op: "Sub"
  input: "g_embedding_support_vectors/Module_2/Conv2d_Module_2/BatchNorm/moving_variance/read"
  input: "g_embedding_support_vectors/g_embedding_support_vectors/Module_2/Conv2d_Module_2/BatchNorm/moments/normalize/variance"
  attr {
    key: "T"
    value {
      type: DT_FLOAT
    }
  }
  attr {
    key: "_class"
    value {
      list {
        s: "loc:@g_embedding_support_vectors/Module_2/Conv2d_Module_2/BatchNorm/moving_variance"
      }
    }
  }
  attr {
    key: "_output_shapes"
    value {
      list {
        shape {
          dim {
            size: 64
          }
        }
      }
    }
  }
}
node {
  name: "g_embedding_support_vectors/g_embedding_support_vectors/Module_2/Conv2d_Module_2/BatchNorm/AssignMovingAvg_1/mul"
  op: "Mul"
  input: "g_embedding_support_vectors/g_embedding_support_vectors/Module_2/Conv2d_Module_2/BatchNorm/AssignMovingAvg_1/sub"
  input: "g_embedding_support_vectors/g_embedding_support_vectors/Module_2/Conv2d_Module_2/BatchNorm/AssignMovingAvg_1/decay"
  attr {
    key: "T"
    value {
      type: DT_FLOAT
    }
  }
  attr {
    key: "_class"
    value {
      list {
        s: "loc:@g_embedding_support_vectors/Module_2/Conv2d_Module_2/BatchNorm/moving_variance"
      }
    }
  }
  attr {
    key: "_output_shapes"
    value {
      list {
        shape {
          dim {
            size: 64
          }
        }
      }
    }
  }
}
node {
  name: "g_embedding_support_vectors/g_embedding_support_vectors/Module_2/Conv2d_Module_2/BatchNorm/AssignMovingAvg_1"
  op: "AssignSub"
  input: "g_embedding_support_vectors/Module_2/Conv2d_Module_2/BatchNorm/moving_variance"
  input: "g_embedding_support_vectors/g_embedding_support_vectors/Module_2/Conv2d_Module_2/BatchNorm/AssignMovingAvg_1/mul"
  attr {
    key: "T"
    value {
      type: DT_FLOAT
    }
  }
  attr {
    key: "_class"
    value {
      list {
        s: "loc:@g_embedding_support_vectors/Module_2/Conv2d_Module_2/BatchNorm/moving_variance"
      }
    }
  }
  attr {
    key: "_output_shapes"
    value {
      list {
        shape {
          dim {
            size: 64
          }
        }
      }
    }
  }
  attr {
    key: "use_locking"
    value {
      b: false
    }
  }
}
node {
  name: "g_embedding_support_vectors/g_embedding_support_vectors/Module_2/Conv2d_Module_2/BatchNorm/batchnorm/add/y"
  op: "Const"
  attr {
    key: "_output_shapes"
    value {
      list {
        shape {
        }
      }
    }
  }
  attr {
    key: "dtype"
    value {
      type: DT_FLOAT
    }
  }
  attr {
    key: "value"
    value {
      tensor {
        dtype: DT_FLOAT
        tensor_shape {
        }
        float_val: 0.0010000000475
      }
    }
  }
}
node {
  name: "g_embedding_support_vectors/g_embedding_support_vectors/Module_2/Conv2d_Module_2/BatchNorm/batchnorm/add"
  op: "Add"
  input: "g_embedding_support_vectors/g_embedding_support_vectors/Module_2/Conv2d_Module_2/BatchNorm/moments/normalize/variance"
  input: "g_embedding_support_vectors/g_embedding_support_vectors/Module_2/Conv2d_Module_2/BatchNorm/batchnorm/add/y"
  attr {
    key: "T"
    value {
      type: DT_FLOAT
    }
  }
  attr {
    key: "_output_shapes"
    value {
      list {
        shape {
          dim {
            size: 64
          }
        }
      }
    }
  }
}
node {
  name: "g_embedding_support_vectors/g_embedding_support_vectors/Module_2/Conv2d_Module_2/BatchNorm/batchnorm/Rsqrt"
  op: "Rsqrt"
  input: "g_embedding_support_vectors/g_embedding_support_vectors/Module_2/Conv2d_Module_2/BatchNorm/batchnorm/add"
  attr {
    key: "T"
    value {
      type: DT_FLOAT
    }
  }
  attr {
    key: "_output_shapes"
    value {
      list {
        shape {
          dim {
            size: 64
          }
        }
      }
    }
  }
}
node {
  name: "g_embedding_support_vectors/g_embedding_support_vectors/Module_2/Conv2d_Module_2/BatchNorm/batchnorm/mul"
  op: "Mul"
  input: "g_embedding_support_vectors/g_embedding_support_vectors/Module_2/Conv2d_Module_2/Conv2D"
  input: "g_embedding_support_vectors/g_embedding_support_vectors/Module_2/Conv2d_Module_2/BatchNorm/batchnorm/Rsqrt"
  attr {
    key: "T"
    value {
      type: DT_FLOAT
    }
  }
  attr {
    key: "_output_shapes"
    value {
      list {
        shape {
          dim {
            size: 5
          }
          dim {
            size: 28
          }
          dim {
            size: 12
          }
          dim {
            size: 64
          }
        }
      }
    }
  }
}
node {
  name: "g_embedding_support_vectors/g_embedding_support_vectors/Module_2/Conv2d_Module_2/BatchNorm/batchnorm/mul_1"
  op: "Mul"
  input: "g_embedding_support_vectors/g_embedding_support_vectors/Module_2/Conv2d_Module_2/BatchNorm/moments/normalize/mean"
  input: "g_embedding_support_vectors/g_embedding_support_vectors/Module_2/Conv2d_Module_2/BatchNorm/batchnorm/Rsqrt"
  attr {
    key: "T"
    value {
      type: DT_FLOAT
    }
  }
  attr {
    key: "_output_shapes"
    value {
      list {
        shape {
          dim {
            size: 64
          }
        }
      }
    }
  }
}
node {
  name: "g_embedding_support_vectors/g_embedding_support_vectors/Module_2/Conv2d_Module_2/BatchNorm/batchnorm/sub"
  op: "Sub"
  input: "g_embedding_support_vectors/Module_2/Conv2d_Module_2/BatchNorm/beta/read"
  input: "g_embedding_support_vectors/g_embedding_support_vectors/Module_2/Conv2d_Module_2/BatchNorm/batchnorm/mul_1"
  attr {
    key: "T"
    value {
      type: DT_FLOAT
    }
  }
  attr {
    key: "_output_shapes"
    value {
      list {
        shape {
          dim {
            size: 64
          }
        }
      }
    }
  }
}
node {
  name: "g_embedding_support_vectors/g_embedding_support_vectors/Module_2/Conv2d_Module_2/BatchNorm/batchnorm/add_1"
  op: "Add"
  input: "g_embedding_support_vectors/g_embedding_support_vectors/Module_2/Conv2d_Module_2/BatchNorm/batchnorm/mul"
  input: "g_embedding_support_vectors/g_embedding_support_vectors/Module_2/Conv2d_Module_2/BatchNorm/batchnorm/sub"
  attr {
    key: "T"
    value {
      type: DT_FLOAT
    }
  }
  attr {
    key: "_output_shapes"
    value {
      list {
        shape {
          dim {
            size: 5
          }
          dim {
            size: 28
          }
          dim {
            size: 12
          }
          dim {
            size: 64
          }
        }
      }
    }
  }
}
node {
  name: "g_embedding_support_vectors/g_embedding_support_vectors/Module_2/Conv2d_Module_2/Relu"
  op: "Relu"
  input: "g_embedding_support_vectors/g_embedding_support_vectors/Module_2/Conv2d_Module_2/BatchNorm/batchnorm/add_1"
  attr {
    key: "T"
    value {
      type: DT_FLOAT
    }
  }
  attr {
    key: "_output_shapes"
    value {
      list {
        shape {
          dim {
            size: 5
          }
          dim {
            size: 28
          }
          dim {
            size: 12
          }
          dim {
            size: 64
          }
        }
      }
    }
  }
}
node {
  name: "g_embedding_support_vectors/g_embedding_support_vectors/Module_2/MaxPool_Module_2/MaxPool"
  op: "MaxPool"
  input: "g_embedding_support_vectors/g_embedding_support_vectors/Module_2/Conv2d_Module_2/Relu"
  attr {
    key: "T"
    value {
      type: DT_FLOAT
    }
  }
  attr {
    key: "_output_shapes"
    value {
      list {
        shape {
          dim {
            size: 5
          }
          dim {
            size: 14
          }
          dim {
            size: 6
          }
          dim {
            size: 64
          }
        }
      }
    }
  }
  attr {
    key: "data_format"
    value {
      s: "NHWC"
    }
  }
  attr {
    key: "ksize"
    value {
      list {
        i: 1
        i: 2
        i: 2
        i: 1
      }
    }
  }
  attr {
    key: "padding"
    value {
      s: "VALID"
    }
  }
  attr {
    key: "strides"
    value {
      list {
        i: 1
        i: 2
        i: 2
        i: 1
      }
    }
  }
}
node {
  name: "g_embedding_support_vectors/Module_3/Conv2d_Module_3/weights"
  op: "Variable"
  attr {
    key: "_output_shapes"
    value {
      list {
        shape {
          dim {
            size: 3
          }
          dim {
            size: 3
          }
          dim {
            size: 64
          }
          dim {
            size: 64
          }
        }
      }
    }
  }
  attr {
    key: "container"
    value {
      s: ""
    }
  }
  attr {
    key: "dtype"
    value {
      type: DT_FLOAT
    }
  }
  attr {
    key: "shape"
    value {
      shape {
        dim {
          size: 3
        }
        dim {
          size: 3
        }
        dim {
          size: 64
        }
        dim {
          size: 64
        }
      }
    }
  }
  attr {
    key: "shared_name"
    value {
      s: ""
    }
  }
}
node {
  name: "g_embedding_support_vectors/Module_3/Conv2d_Module_3/weights/Initializer/truncated_normal/shape"
  op: "Const"
  attr {
    key: "_class"
    value {
      list {
        s: "loc:@g_embedding_support_vectors/Module_3/Conv2d_Module_3/weights"
      }
    }
  }
  attr {
    key: "_output_shapes"
    value {
      list {
        shape {
          dim {
            size: 4
          }
        }
      }
    }
  }
  attr {
    key: "dtype"
    value {
      type: DT_INT32
    }
  }
  attr {
    key: "value"
    value {
      tensor {
        dtype: DT_INT32
        tensor_shape {
          dim {
            size: 4
          }
        }
        tensor_content: "\003\000\000\000\003\000\000\000@\000\000\000@\000\000\000"
      }
    }
  }
}
node {
  name: "g_embedding_support_vectors/Module_3/Conv2d_Module_3/weights/Initializer/truncated_normal/mean"
  op: "Const"
  attr {
    key: "_class"
    value {
      list {
        s: "loc:@g_embedding_support_vectors/Module_3/Conv2d_Module_3/weights"
      }
    }
  }
  attr {
    key: "_output_shapes"
    value {
      list {
        shape {
        }
      }
    }
  }
  attr {
    key: "dtype"
    value {
      type: DT_FLOAT
    }
  }
  attr {
    key: "value"
    value {
      tensor {
        dtype: DT_FLOAT
        tensor_shape {
        }
        float_val: 0.0
      }
    }
  }
}
node {
  name: "g_embedding_support_vectors/Module_3/Conv2d_Module_3/weights/Initializer/truncated_normal/stddev"
  op: "Const"
  attr {
    key: "_class"
    value {
      list {
        s: "loc:@g_embedding_support_vectors/Module_3/Conv2d_Module_3/weights"
      }
    }
  }
  attr {
    key: "_output_shapes"
    value {
      list {
        shape {
        }
      }
    }
  }
  attr {
    key: "dtype"
    value {
      type: DT_FLOAT
    }
  }
  attr {
    key: "value"
    value {
      tensor {
        dtype: DT_FLOAT
        tensor_shape {
        }
        float_val: 0.10000000149
      }
    }
  }
}
node {
  name: "g_embedding_support_vectors/Module_3/Conv2d_Module_3/weights/Initializer/truncated_normal/TruncatedNormal"
  op: "TruncatedNormal"
  input: "g_embedding_support_vectors/Module_3/Conv2d_Module_3/weights/Initializer/truncated_normal/shape"
  attr {
    key: "T"
    value {
      type: DT_INT32
    }
  }
  attr {
    key: "_class"
    value {
      list {
        s: "loc:@g_embedding_support_vectors/Module_3/Conv2d_Module_3/weights"
      }
    }
  }
  attr {
    key: "_output_shapes"
    value {
      list {
        shape {
          dim {
            size: 3
          }
          dim {
            size: 3
          }
          dim {
            size: 64
          }
          dim {
            size: 64
          }
        }
      }
    }
  }
  attr {
    key: "dtype"
    value {
      type: DT_FLOAT
    }
  }
  attr {
    key: "seed"
    value {
      i: 0
    }
  }
  attr {
    key: "seed2"
    value {
      i: 0
    }
  }
}
node {
  name: "g_embedding_support_vectors/Module_3/Conv2d_Module_3/weights/Initializer/truncated_normal/mul"
  op: "Mul"
  input: "g_embedding_support_vectors/Module_3/Conv2d_Module_3/weights/Initializer/truncated_normal/TruncatedNormal"
  input: "g_embedding_support_vectors/Module_3/Conv2d_Module_3/weights/Initializer/truncated_normal/stddev"
  attr {
    key: "T"
    value {
      type: DT_FLOAT
    }
  }
  attr {
    key: "_class"
    value {
      list {
        s: "loc:@g_embedding_support_vectors/Module_3/Conv2d_Module_3/weights"
      }
    }
  }
  attr {
    key: "_output_shapes"
    value {
      list {
        shape {
          dim {
            size: 3
          }
          dim {
            size: 3
          }
          dim {
            size: 64
          }
          dim {
            size: 64
          }
        }
      }
    }
  }
}
node {
  name: "g_embedding_support_vectors/Module_3/Conv2d_Module_3/weights/Initializer/truncated_normal"
  op: "Add"
  input: "g_embedding_support_vectors/Module_3/Conv2d_Module_3/weights/Initializer/truncated_normal/mul"
  input: "g_embedding_support_vectors/Module_3/Conv2d_Module_3/weights/Initializer/truncated_normal/mean"
  attr {
    key: "T"
    value {
      type: DT_FLOAT
    }
  }
  attr {
    key: "_class"
    value {
      list {
        s: "loc:@g_embedding_support_vectors/Module_3/Conv2d_Module_3/weights"
      }
    }
  }
  attr {
    key: "_output_shapes"
    value {
      list {
        shape {
          dim {
            size: 3
          }
          dim {
            size: 3
          }
          dim {
            size: 64
          }
          dim {
            size: 64
          }
        }
      }
    }
  }
}
node {
  name: "g_embedding_support_vectors/Module_3/Conv2d_Module_3/weights/Assign"
  op: "Assign"
  input: "g_embedding_support_vectors/Module_3/Conv2d_Module_3/weights"
  input: "g_embedding_support_vectors/Module_3/Conv2d_Module_3/weights/Initializer/truncated_normal"
  attr {
    key: "T"
    value {
      type: DT_FLOAT
    }
  }
  attr {
    key: "_class"
    value {
      list {
        s: "loc:@g_embedding_support_vectors/Module_3/Conv2d_Module_3/weights"
      }
    }
  }
  attr {
    key: "_output_shapes"
    value {
      list {
        shape {
          dim {
            size: 3
          }
          dim {
            size: 3
          }
          dim {
            size: 64
          }
          dim {
            size: 64
          }
        }
      }
    }
  }
  attr {
    key: "use_locking"
    value {
      b: true
    }
  }
  attr {
    key: "validate_shape"
    value {
      b: true
    }
  }
}
node {
  name: "g_embedding_support_vectors/Module_3/Conv2d_Module_3/weights/read"
  op: "Identity"
  input: "g_embedding_support_vectors/Module_3/Conv2d_Module_3/weights"
  attr {
    key: "T"
    value {
      type: DT_FLOAT
    }
  }
  attr {
    key: "_class"
    value {
      list {
        s: "loc:@g_embedding_support_vectors/Module_3/Conv2d_Module_3/weights"
      }
    }
  }
  attr {
    key: "_output_shapes"
    value {
      list {
        shape {
          dim {
            size: 3
          }
          dim {
            size: 3
          }
          dim {
            size: 64
          }
          dim {
            size: 64
          }
        }
      }
    }
  }
}
node {
  name: "g_embedding_support_vectors/Module_3/Conv2d_Module_3/weights/Regularizer/l2_regularizer/scale"
  op: "Const"
  attr {
    key: "_class"
    value {
      list {
        s: "loc:@g_embedding_support_vectors/Module_3/Conv2d_Module_3/weights"
      }
    }
  }
  attr {
    key: "_output_shapes"
    value {
      list {
        shape {
        }
      }
    }
  }
  attr {
    key: "dtype"
    value {
      type: DT_FLOAT
    }
  }
  attr {
    key: "value"
    value {
      tensor {
        dtype: DT_FLOAT
        tensor_shape {
        }
        float_val: 3.99999989895e-05
      }
    }
  }
}
node {
  name: "g_embedding_support_vectors/Module_3/Conv2d_Module_3/weights/Regularizer/l2_regularizer/L2Loss"
  op: "L2Loss"
  input: "g_embedding_support_vectors/Module_3/Conv2d_Module_3/weights/read"
  attr {
    key: "T"
    value {
      type: DT_FLOAT
    }
  }
  attr {
    key: "_class"
    value {
      list {
        s: "loc:@g_embedding_support_vectors/Module_3/Conv2d_Module_3/weights"
      }
    }
  }
  attr {
    key: "_output_shapes"
    value {
      list {
        shape {
        }
      }
    }
  }
}
node {
  name: "g_embedding_support_vectors/Module_3/Conv2d_Module_3/weights/Regularizer/l2_regularizer"
  op: "Mul"
  input: "g_embedding_support_vectors/Module_3/Conv2d_Module_3/weights/Regularizer/l2_regularizer/scale"
  input: "g_embedding_support_vectors/Module_3/Conv2d_Module_3/weights/Regularizer/l2_regularizer/L2Loss"
  attr {
    key: "T"
    value {
      type: DT_FLOAT
    }
  }
  attr {
    key: "_class"
    value {
      list {
        s: "loc:@g_embedding_support_vectors/Module_3/Conv2d_Module_3/weights"
      }
    }
  }
  attr {
    key: "_output_shapes"
    value {
      list {
        shape {
        }
      }
    }
  }
}
node {
  name: "g_embedding_support_vectors/g_embedding_support_vectors/Module_3/Conv2d_Module_3/Conv2D"
  op: "Conv2D"
  input: "g_embedding_support_vectors/g_embedding_support_vectors/Module_2/MaxPool_Module_2/MaxPool"
  input: "g_embedding_support_vectors/Module_3/Conv2d_Module_3/weights/read"
  attr {
    key: "T"
    value {
      type: DT_FLOAT
    }
  }
  attr {
    key: "_output_shapes"
    value {
      list {
        shape {
          dim {
            size: 5
          }
          dim {
            size: 12
          }
          dim {
            size: 4
          }
          dim {
            size: 64
          }
        }
      }
    }
  }
  attr {
    key: "data_format"
    value {
      s: "NHWC"
    }
  }
  attr {
    key: "padding"
    value {
      s: "VALID"
    }
  }
  attr {
    key: "strides"
    value {
      list {
        i: 1
        i: 1
        i: 1
        i: 1
      }
    }
  }
  attr {
    key: "use_cudnn_on_gpu"
    value {
      b: true
    }
  }
}
node {
  name: "g_embedding_support_vectors/Module_3/Conv2d_Module_3/BatchNorm/beta"
  op: "Variable"
  attr {
    key: "_output_shapes"
    value {
      list {
        shape {
          dim {
            size: 64
          }
        }
      }
    }
  }
  attr {
    key: "container"
    value {
      s: ""
    }
  }
  attr {
    key: "dtype"
    value {
      type: DT_FLOAT
    }
  }
  attr {
    key: "shape"
    value {
      shape {
        dim {
          size: 64
        }
      }
    }
  }
  attr {
    key: "shared_name"
    value {
      s: ""
    }
  }
}
node {
  name: "g_embedding_support_vectors/Module_3/Conv2d_Module_3/BatchNorm/beta/Initializer/zeros"
  op: "Const"
  attr {
    key: "_class"
    value {
      list {
        s: "loc:@g_embedding_support_vectors/Module_3/Conv2d_Module_3/BatchNorm/beta"
      }
    }
  }
  attr {
    key: "_output_shapes"
    value {
      list {
        shape {
          dim {
            size: 64
          }
        }
      }
    }
  }
  attr {
    key: "dtype"
    value {
      type: DT_FLOAT
    }
  }
  attr {
    key: "value"
    value {
      tensor {
        dtype: DT_FLOAT
        tensor_shape {
          dim {
            size: 64
          }
        }
        float_val: 0.0
      }
    }
  }
}
node {
  name: "g_embedding_support_vectors/Module_3/Conv2d_Module_3/BatchNorm/beta/Assign"
  op: "Assign"
  input: "g_embedding_support_vectors/Module_3/Conv2d_Module_3/BatchNorm/beta"
  input: "g_embedding_support_vectors/Module_3/Conv2d_Module_3/BatchNorm/beta/Initializer/zeros"
  attr {
    key: "T"
    value {
      type: DT_FLOAT
    }
  }
  attr {
    key: "_class"
    value {
      list {
        s: "loc:@g_embedding_support_vectors/Module_3/Conv2d_Module_3/BatchNorm/beta"
      }
    }
  }
  attr {
    key: "_output_shapes"
    value {
      list {
        shape {
          dim {
            size: 64
          }
        }
      }
    }
  }
  attr {
    key: "use_locking"
    value {
      b: true
    }
  }
  attr {
    key: "validate_shape"
    value {
      b: true
    }
  }
}
node {
  name: "g_embedding_support_vectors/Module_3/Conv2d_Module_3/BatchNorm/beta/read"
  op: "Identity"
  input: "g_embedding_support_vectors/Module_3/Conv2d_Module_3/BatchNorm/beta"
  attr {
    key: "T"
    value {
      type: DT_FLOAT
    }
  }
  attr {
    key: "_class"
    value {
      list {
        s: "loc:@g_embedding_support_vectors/Module_3/Conv2d_Module_3/BatchNorm/beta"
      }
    }
  }
  attr {
    key: "_output_shapes"
    value {
      list {
        shape {
          dim {
            size: 64
          }
        }
      }
    }
  }
}
node {
  name: "g_embedding_support_vectors/Module_3/Conv2d_Module_3/BatchNorm/moving_mean"
  op: "Variable"
  attr {
    key: "_output_shapes"
    value {
      list {
        shape {
          dim {
            size: 64
          }
        }
      }
    }
  }
  attr {
    key: "container"
    value {
      s: ""
    }
  }
  attr {
    key: "dtype"
    value {
      type: DT_FLOAT
    }
  }
  attr {
    key: "shape"
    value {
      shape {
        dim {
          size: 64
        }
      }
    }
  }
  attr {
    key: "shared_name"
    value {
      s: ""
    }
  }
}
node {
  name: "g_embedding_support_vectors/Module_3/Conv2d_Module_3/BatchNorm/moving_mean/Initializer/zeros"
  op: "Const"
  attr {
    key: "_class"
    value {
      list {
        s: "loc:@g_embedding_support_vectors/Module_3/Conv2d_Module_3/BatchNorm/moving_mean"
      }
    }
  }
  attr {
    key: "_output_shapes"
    value {
      list {
        shape {
          dim {
            size: 64
          }
        }
      }
    }
  }
  attr {
    key: "dtype"
    value {
      type: DT_FLOAT
    }
  }
  attr {
    key: "value"
    value {
      tensor {
        dtype: DT_FLOAT
        tensor_shape {
          dim {
            size: 64
          }
        }
        float_val: 0.0
      }
    }
  }
}
node {
  name: "g_embedding_support_vectors/Module_3/Conv2d_Module_3/BatchNorm/moving_mean/Assign"
  op: "Assign"
  input: "g_embedding_support_vectors/Module_3/Conv2d_Module_3/BatchNorm/moving_mean"
  input: "g_embedding_support_vectors/Module_3/Conv2d_Module_3/BatchNorm/moving_mean/Initializer/zeros"
  attr {
    key: "T"
    value {
      type: DT_FLOAT
    }
  }
  attr {
    key: "_class"
    value {
      list {
        s: "loc:@g_embedding_support_vectors/Module_3/Conv2d_Module_3/BatchNorm/moving_mean"
      }
    }
  }
  attr {
    key: "_output_shapes"
    value {
      list {
        shape {
          dim {
            size: 64
          }
        }
      }
    }
  }
  attr {
    key: "use_locking"
    value {
      b: true
    }
  }
  attr {
    key: "validate_shape"
    value {
      b: true
    }
  }
}
node {
  name: "g_embedding_support_vectors/Module_3/Conv2d_Module_3/BatchNorm/moving_mean/read"
  op: "Identity"
  input: "g_embedding_support_vectors/Module_3/Conv2d_Module_3/BatchNorm/moving_mean"
  attr {
    key: "T"
    value {
      type: DT_FLOAT
    }
  }
  attr {
    key: "_class"
    value {
      list {
        s: "loc:@g_embedding_support_vectors/Module_3/Conv2d_Module_3/BatchNorm/moving_mean"
      }
    }
  }
  attr {
    key: "_output_shapes"
    value {
      list {
        shape {
          dim {
            size: 64
          }
        }
      }
    }
  }
}
node {
  name: "g_embedding_support_vectors/Module_3/Conv2d_Module_3/BatchNorm/moving_variance"
  op: "Variable"
  attr {
    key: "_output_shapes"
    value {
      list {
        shape {
          dim {
            size: 64
          }
        }
      }
    }
  }
  attr {
    key: "container"
    value {
      s: ""
    }
  }
  attr {
    key: "dtype"
    value {
      type: DT_FLOAT
    }
  }
  attr {
    key: "shape"
    value {
      shape {
        dim {
          size: 64
        }
      }
    }
  }
  attr {
    key: "shared_name"
    value {
      s: ""
    }
  }
}
node {
  name: "g_embedding_support_vectors/Module_3/Conv2d_Module_3/BatchNorm/moving_variance/Initializer/ones"
  op: "Const"
  attr {
    key: "_class"
    value {
      list {
        s: "loc:@g_embedding_support_vectors/Module_3/Conv2d_Module_3/BatchNorm/moving_variance"
      }
    }
  }
  attr {
    key: "_output_shapes"
    value {
      list {
        shape {
          dim {
            size: 64
          }
        }
      }
    }
  }
  attr {
    key: "dtype"
    value {
      type: DT_FLOAT
    }
  }
  attr {
    key: "value"
    value {
      tensor {
        dtype: DT_FLOAT
        tensor_shape {
          dim {
            size: 64
          }
        }
        float_val: 1.0
      }
    }
  }
}
node {
  name: "g_embedding_support_vectors/Module_3/Conv2d_Module_3/BatchNorm/moving_variance/Assign"
  op: "Assign"
  input: "g_embedding_support_vectors/Module_3/Conv2d_Module_3/BatchNorm/moving_variance"
  input: "g_embedding_support_vectors/Module_3/Conv2d_Module_3/BatchNorm/moving_variance/Initializer/ones"
  attr {
    key: "T"
    value {
      type: DT_FLOAT
    }
  }
  attr {
    key: "_class"
    value {
      list {
        s: "loc:@g_embedding_support_vectors/Module_3/Conv2d_Module_3/BatchNorm/moving_variance"
      }
    }
  }
  attr {
    key: "_output_shapes"
    value {
      list {
        shape {
          dim {
            size: 64
          }
        }
      }
    }
  }
  attr {
    key: "use_locking"
    value {
      b: true
    }
  }
  attr {
    key: "validate_shape"
    value {
      b: true
    }
  }
}
node {
  name: "g_embedding_support_vectors/Module_3/Conv2d_Module_3/BatchNorm/moving_variance/read"
  op: "Identity"
  input: "g_embedding_support_vectors/Module_3/Conv2d_Module_3/BatchNorm/moving_variance"
  attr {
    key: "T"
    value {
      type: DT_FLOAT
    }
  }
  attr {
    key: "_class"
    value {
      list {
        s: "loc:@g_embedding_support_vectors/Module_3/Conv2d_Module_3/BatchNorm/moving_variance"
      }
    }
  }
  attr {
    key: "_output_shapes"
    value {
      list {
        shape {
          dim {
            size: 64
          }
        }
      }
    }
  }
}
node {
  name: "g_embedding_support_vectors/g_embedding_support_vectors/Module_3/Conv2d_Module_3/BatchNorm/Add/y"
  op: "Const"
  attr {
    key: "_output_shapes"
    value {
      list {
        shape {
        }
      }
    }
  }
  attr {
    key: "dtype"
    value {
      type: DT_FLOAT
    }
  }
  attr {
    key: "value"
    value {
      tensor {
        dtype: DT_FLOAT
        tensor_shape {
        }
        float_val: 0.0
      }
    }
  }
}
node {
  name: "g_embedding_support_vectors/g_embedding_support_vectors/Module_3/Conv2d_Module_3/BatchNorm/Add"
  op: "Add"
  input: "g_embedding_support_vectors/Module_3/Conv2d_Module_3/BatchNorm/moving_mean/read"
  input: "g_embedding_support_vectors/g_embedding_support_vectors/Module_3/Conv2d_Module_3/BatchNorm/Add/y"
  attr {
    key: "T"
    value {
      type: DT_FLOAT
    }
  }
  attr {
    key: "_output_shapes"
    value {
      list {
        shape {
          dim {
            size: 64
          }
        }
      }
    }
  }
}
node {
  name: "g_embedding_support_vectors/g_embedding_support_vectors/Module_3/Conv2d_Module_3/BatchNorm/moments/sufficient_statistics/Const"
  op: "Const"
  attr {
    key: "_output_shapes"
    value {
      list {
        shape {
        }
      }
    }
  }
  attr {
    key: "dtype"
    value {
      type: DT_FLOAT
    }
  }
  attr {
    key: "value"
    value {
      tensor {
        dtype: DT_FLOAT
        tensor_shape {
        }
        float_val: 240.0
      }
    }
  }
}
node {
  name: "g_embedding_support_vectors/g_embedding_support_vectors/Module_3/Conv2d_Module_3/BatchNorm/moments/sufficient_statistics/Sub"
  op: "Sub"
  input: "g_embedding_support_vectors/g_embedding_support_vectors/Module_3/Conv2d_Module_3/Conv2D"
  input: "g_embedding_support_vectors/g_embedding_support_vectors/Module_3/Conv2d_Module_3/BatchNorm/Add"
  attr {
    key: "T"
    value {
      type: DT_FLOAT
    }
  }
  attr {
    key: "_output_shapes"
    value {
      list {
        shape {
          dim {
            size: 5
          }
          dim {
            size: 12
          }
          dim {
            size: 4
          }
          dim {
            size: 64
          }
        }
      }
    }
  }
}
node {
  name: "g_embedding_support_vectors/g_embedding_support_vectors/Module_3/Conv2d_Module_3/BatchNorm/moments/sufficient_statistics/SquaredDifference"
  op: "SquaredDifference"
  input: "g_embedding_support_vectors/g_embedding_support_vectors/Module_3/Conv2d_Module_3/Conv2D"
  input: "g_embedding_support_vectors/g_embedding_support_vectors/Module_3/Conv2d_Module_3/BatchNorm/Add"
  attr {
    key: "T"
    value {
      type: DT_FLOAT
    }
  }
  attr {
    key: "_output_shapes"
    value {
      list {
        shape {
          dim {
            size: 5
          }
          dim {
            size: 12
          }
          dim {
            size: 4
          }
          dim {
            size: 64
          }
        }
      }
    }
  }
}
node {
  name: "g_embedding_support_vectors/g_embedding_support_vectors/Module_3/Conv2d_Module_3/BatchNorm/moments/sufficient_statistics/mean_ss/reduction_indices"
  op: "Const"
  attr {
    key: "_output_shapes"
    value {
      list {
        shape {
          dim {
            size: 3
          }
        }
      }
    }
  }
  attr {
    key: "dtype"
    value {
      type: DT_INT32
    }
  }
  attr {
    key: "value"
    value {
      tensor {
        dtype: DT_INT32
        tensor_shape {
          dim {
            size: 3
          }
        }
        tensor_content: "\000\000\000\000\001\000\000\000\002\000\000\000"
      }
    }
  }
}
node {
  name: "g_embedding_support_vectors/g_embedding_support_vectors/Module_3/Conv2d_Module_3/BatchNorm/moments/sufficient_statistics/mean_ss"
  op: "Sum"
  input: "g_embedding_support_vectors/g_embedding_support_vectors/Module_3/Conv2d_Module_3/BatchNorm/moments/sufficient_statistics/Sub"
  input: "g_embedding_support_vectors/g_embedding_support_vectors/Module_3/Conv2d_Module_3/BatchNorm/moments/sufficient_statistics/mean_ss/reduction_indices"
  attr {
    key: "T"
    value {
      type: DT_FLOAT
    }
  }
  attr {
    key: "Tidx"
    value {
      type: DT_INT32
    }
  }
  attr {
    key: "_output_shapes"
    value {
      list {
        shape {
          dim {
            size: 64
          }
        }
      }
    }
  }
  attr {
    key: "keep_dims"
    value {
      b: false
    }
  }
}
node {
  name: "g_embedding_support_vectors/g_embedding_support_vectors/Module_3/Conv2d_Module_3/BatchNorm/moments/sufficient_statistics/var_ss/reduction_indices"
  op: "Const"
  attr {
    key: "_output_shapes"
    value {
      list {
        shape {
          dim {
            size: 3
          }
        }
      }
    }
  }
  attr {
    key: "dtype"
    value {
      type: DT_INT32
    }
  }
  attr {
    key: "value"
    value {
      tensor {
        dtype: DT_INT32
        tensor_shape {
          dim {
            size: 3
          }
        }
        tensor_content: "\000\000\000\000\001\000\000\000\002\000\000\000"
      }
    }
  }
}
node {
  name: "g_embedding_support_vectors/g_embedding_support_vectors/Module_3/Conv2d_Module_3/BatchNorm/moments/sufficient_statistics/var_ss"
  op: "Sum"
  input: "g_embedding_support_vectors/g_embedding_support_vectors/Module_3/Conv2d_Module_3/BatchNorm/moments/sufficient_statistics/SquaredDifference"
  input: "g_embedding_support_vectors/g_embedding_support_vectors/Module_3/Conv2d_Module_3/BatchNorm/moments/sufficient_statistics/var_ss/reduction_indices"
  attr {
    key: "T"
    value {
      type: DT_FLOAT
    }
  }
  attr {
    key: "Tidx"
    value {
      type: DT_INT32
    }
  }
  attr {
    key: "_output_shapes"
    value {
      list {
        shape {
          dim {
            size: 64
          }
        }
      }
    }
  }
  attr {
    key: "keep_dims"
    value {
      b: false
    }
  }
}
node {
  name: "g_embedding_support_vectors/g_embedding_support_vectors/Module_3/Conv2d_Module_3/BatchNorm/moments/normalize/divisor"
  op: "Inv"
  input: "g_embedding_support_vectors/g_embedding_support_vectors/Module_3/Conv2d_Module_3/BatchNorm/moments/sufficient_statistics/Const"
  input: "^g_embedding_support_vectors/g_embedding_support_vectors/Module_3/Conv2d_Module_3/BatchNorm/moments/sufficient_statistics/mean_ss"
  input: "^g_embedding_support_vectors/g_embedding_support_vectors/Module_3/Conv2d_Module_3/BatchNorm/moments/sufficient_statistics/var_ss"
  attr {
    key: "T"
    value {
      type: DT_FLOAT
    }
  }
  attr {
    key: "_output_shapes"
    value {
      list {
        shape {
        }
      }
    }
  }
}
node {
…
  input: "^save_2/Assign_35"
  input: "^save_2/Assign_36"
  input: "^save_2/Assign_37"
  input: "^save_2/Assign_38"
  input: "^save_2/Assign_39"
  input: "^save_2/Assign_40"
  input: "^save_2/Assign_41"
  input: "^save_2/Assign_42"
  input: "^save_2/Assign_43"
  input: "^save_2/Assign_44"
  input: "^save_2/Assign_45"
  input: "^save_2/Assign_46"
  input: "^save_2/Assign_47"
  input: "^save_2/Assign_48"
  input: "^save_2/Assign_49"
}
node {
  name: "init_ops/init"
  op: "NoOp"
  input: "^g_embedding_support_vectors/Module_0/Conv2d_Module_0/weights/Assign"
  input: "^g_embedding_support_vectors/Module_0/Conv2d_Module_0/BatchNorm/beta/Assign"
  input: "^g_embedding_support_vectors/Module_0/Conv2d_Module_0/BatchNorm/moving_mean/Assign"
  input: "^g_embedding_support_vectors/Module_0/Conv2d_Module_0/BatchNorm/moving_variance/Assign"
  input: "^g_embedding_support_vectors/Module_1/Conv2d_Module_1/weights/Assign"
  input: "^g_embedding_support_vectors/Module_1/Conv2d_Module_1/BatchNorm/beta/Assign"
  input: "^g_embedding_support_vectors/Module_1/Conv2d_Module_1/BatchNorm/moving_mean/Assign"
  input: "^g_embedding_support_vectors/Module_1/Conv2d_Module_1/BatchNorm/moving_variance/Assign"
  input: "^g_embedding_support_vectors/Module_2/Conv2d_Module_2/weights/Assign"
  input: "^g_embedding_support_vectors/Module_2/Conv2d_Module_2/BatchNorm/beta/Assign"
  input: "^g_embedding_support_vectors/Module_2/Conv2d_Module_2/BatchNorm/moving_mean/Assign"
  input: "^g_embedding_support_vectors/Module_2/Conv2d_Module_2/BatchNorm/moving_variance/Assign"
  input: "^g_embedding_support_vectors/Module_3/Conv2d_Module_3/weights/Assign"
  input: "^g_embedding_support_vectors/Module_3/Conv2d_Module_3/BatchNorm/beta/Assign"
  input: "^g_embedding_support_vectors/Module_3/Conv2d_Module_3/BatchNorm/moving_mean/Assign"
  input: "^g_embedding_support_vectors/Module_3/Conv2d_Module_3/BatchNorm/moving_variance/Assign"
  input: "^fce_embedding_g/weights/Assign"
  input: "^fce_embedding_g/BiRNN/FW/LSTMCell/W_0/Assign"
  input: "^fce_embedding_g/BiRNN/FW/LSTMCell/B/Assign"
  input: "^fce_embedding_g/BiRNN/FW/LSTMCell/W_F_diag/Assign"
  input: "^fce_embedding_g/BiRNN/FW/LSTMCell/W_I_diag/Assign"
  input: "^fce_embedding_g/BiRNN/FW/LSTMCell/W_O_diag/Assign"
  input: "^fce_embedding_g/BiRNN/BW/LSTMCell/W_0/Assign"
  input: "^fce_embedding_g/BiRNN/BW/LSTMCell/B/Assign"
  input: "^fce_embedding_g/BiRNN/BW/LSTMCell/W_F_diag/Assign"
  input: "^fce_embedding_g/BiRNN/BW/LSTMCell/W_I_diag/Assign"
  input: "^fce_embedding_g/BiRNN/BW/LSTMCell/W_O_diag/Assign"
  input: "^f_test_support_vector/Module_0/Conv2d_Module_0/weights/Assign"
  input: "^f_test_support_vector/Module_0/Conv2d_Module_0/BatchNorm/beta/Assign"
  input: "^f_test_support_vector/Module_0/Conv2d_Module_0/BatchNorm/moving_mean/Assign"
  input: "^f_test_support_vector/Module_0/Conv2d_Module_0/BatchNorm/moving_variance/Assign"
  input: "^f_test_support_vector/Module_1/Conv2d_Module_1/weights/Assign"
  input: "^f_test_support_vector/Module_1/Conv2d_Module_1/BatchNorm/beta/Assign"
  input: "^f_test_support_vector/Module_1/Conv2d_Module_1/BatchNorm/moving_mean/Assign"
  input: "^f_test_support_vector/Module_1/Conv2d_Module_1/BatchNorm/moving_variance/Assign"
  input: "^f_test_support_vector/Module_2/Conv2d_Module_2/weights/Assign"
  input: "^f_test_support_vector/Module_2/Conv2d_Module_2/BatchNorm/beta/Assign"
  input: "^f_test_support_vector/Module_2/Conv2d_Module_2/BatchNorm/moving_mean/Assign"
  input: "^f_test_support_vector/Module_2/Conv2d_Module_2/BatchNorm/moving_variance/Assign"
  input: "^f_test_support_vector/Module_3/Conv2d_Module_3/weights/Assign"
  input: "^f_test_support_vector/Module_3/Conv2d_Module_3/BatchNorm/beta/Assign"
  input: "^f_test_support_vector/Module_3/Conv2d_Module_3/BatchNorm/moving_mean/Assign"
  input: "^f_test_support_vector/Module_3/Conv2d_Module_3/BatchNorm/moving_variance/Assign"
  input: "^fce_embedding_f/weights/Assign"
  input: "^fce_embedding_f/LSTMCell/W_0/Assign"
  input: "^fce_embedding_f/LSTMCell/B/Assign"
  input: "^fce_embedding_f/LSTMCell/W_F_diag/Assign"
  input: "^fce_embedding_f/LSTMCell/W_I_diag/Assign"
  input: "^fce_embedding_f/LSTMCell/W_O_diag/Assign"
  input: "^global_step/Assign"
}
node {
  name: "init_ops/report_uninitialized_variables/IsVariableInitialized"
  op: "IsVariableInitialized"
  input: "g_embedding_support_vectors/Module_0/Conv2d_Module_0/weights"
  attr {
    key: "_class"
    value {
      list {
        s: "loc:@g_embedding_support_vectors/Module_0/Conv2d_Module_0/weights"
      }
    }
  }
  attr {
    key: "_output_shapes"
    value {
      list {
        shape {
        }
      }
    }
  }
  attr {
    key: "dtype"
    value {
      type: DT_FLOAT
    }
  }
}
node {
  name: "init_ops/report_uninitialized_variables/IsVariableInitialized_1"
  op: "IsVariableInitialized"
  input: "g_embedding_support_vectors/Module_0/Conv2d_Module_0/BatchNorm/beta"
  attr {
    key: "_class"
    value {
      list {
        s: "loc:@g_embedding_support_vectors/Module_0/Conv2d_Module_0/BatchNorm/beta"
      }
    }
  }
  attr {
    key: "_output_shapes"
    value {
      list {
        shape {
        }
      }
    }
  }
  attr {
    key: "dtype"
    value {
      type: DT_FLOAT
    }
  }
}
node {
  name: "init_ops/report_uninitialized_variables/IsVariableInitialized_2"
  op: "IsVariableInitialized"
  input: "g_embedding_support_vectors/Module_0/Conv2d_Module_0/BatchNorm/moving_mean"
  attr {
    key: "_class"
    value {
      list {
        s: "loc:@g_embedding_support_vectors/Module_0/Conv2d_Module_0/BatchNorm/moving_mean"
      }
    }
  }
  attr {
    key: "_output_shapes"
    value {
      list {
        shape {
        }
      }
    }
  }
  attr {
    key: "dtype"
    value {
      type: DT_FLOAT
    }
  }
}
node {
  name: "init_ops/report_uninitialized_variables/IsVariableInitialized_3"
  op: "IsVariableInitialized"
  input: "g_embedding_support_vectors/Module_0/Conv2d_Module_0/BatchNorm/moving_variance"
  attr {
    key: "_class"
    value {
      list {
        s: "loc:@g_embedding_support_vectors/Module_0/Conv2d_Module_0/BatchNorm/moving_variance"
      }
    }
  }
  attr {
    key: "_output_shapes"
    value {
      list {
        shape {
        }
      }
    }
  }
  attr {
    key: "dtype"
    value {
      type: DT_FLOAT
    }
  }
}
node {
  name: "init_ops/report_uninitialized_variables/IsVariableInitialized_4"
  op: "IsVariableInitialized"
  input: "g_embedding_support_vectors/Module_1/Conv2d_Module_1/weights"
  attr {
    key: "_class"
    value {
      list {
        s: "loc:@g_embedding_support_vectors/Module_1/Conv2d_Module_1/weights"
      }
    }
  }
  attr {
    key: "_output_shapes"
    value {
      list {
        shape {
        }
      }
    }
  }
  attr {
    key: "dtype"
    value {
      type: DT_FLOAT
    }
  }
}
node {
  name: "init_ops/report_uninitialized_variables/IsVariableInitialized_5"
  op: "IsVariableInitialized"
  input: "g_embedding_support_vectors/Module_1/Conv2d_Module_1/BatchNorm/beta"
  attr {
    key: "_class"
    value {
      list {
        s: "loc:@g_embedding_support_vectors/Module_1/Conv2d_Module_1/BatchNorm/beta"
      }
    }
  }
  attr {
    key: "_output_shapes"
    value {
      list {
        shape {
        }
      }
    }
  }
  attr {
    key: "dtype"
    value {
      type: DT_FLOAT
    }
  }
}
node {
  name: "init_ops/report_uninitialized_variables/IsVariableInitialized_6"
  op: "IsVariableInitialized"
  input: "g_embedding_support_vectors/Module_1/Conv2d_Module_1/BatchNorm/moving_mean"
  attr {
    key: "_class"
    value {
      list {
        s: "loc:@g_embedding_support_vectors/Module_1/Conv2d_Module_1/BatchNorm/moving_mean"
      }
    }
  }
  attr {
    key: "_output_shapes"
    value {
      list {
        shape {
        }
      }
    }
  }
  attr {
    key: "dtype"
    value {
      type: DT_FLOAT
    }
  }
}
node {
  name: "init_ops/report_uninitialized_variables/IsVariableInitialized_7"
  op: "IsVariableInitialized"
  input: "g_embedding_support_vectors/Module_1/Conv2d_Module_1/BatchNorm/moving_variance"
  attr {
    key: "_class"
    value {
      list {
        s: "loc:@g_embedding_support_vectors/Module_1/Conv2d_Module_1/BatchNorm/moving_variance"
      }
    }
  }
  attr {
    key: "_output_shapes"
    value {
      list {
        shape {
        }
      }
    }
  }
  attr {
    key: "dtype"
    value {
      type: DT_FLOAT
    }
  }
}
node {
  name: "init_ops/report_uninitialized_variables/IsVariableInitialized_8"
  op: "IsVariableInitialized"
  input: "g_embedding_support_vectors/Module_2/Conv2d_Module_2/weights"
  attr {
    key: "_class"
    value {
      list {
        s: "loc:@g_embedding_support_vectors/Module_2/Conv2d_Module_2/weights"
      }
    }
  }
  attr {
    key: "_output_shapes"
    value {
      list {
        shape {
        }
      }
    }
  }
  attr {
    key: "dtype"
    value {
      type: DT_FLOAT
    }
  }
}
node {
  name: "init_ops/report_uninitialized_variables/IsVariableInitialized_9"
  op: "IsVariableInitialized"
  input: "g_embedding_support_vectors/Module_2/Conv2d_Module_2/BatchNorm/beta"
  attr {
    key: "_class"
    value {
      list {
        s: "loc:@g_embedding_support_vectors/Module_2/Conv2d_Module_2/BatchNorm/beta"
      }
    }
  }
  attr {
    key: "_output_shapes"
    value {
      list {
        shape {
        }
      }
    }
  }
  attr {
    key: "dtype"
    value {
      type: DT_FLOAT
    }
  }
}
node {
  name: "init_ops/report_uninitialized_variables/IsVariableInitialized_10"
  op: "IsVariableInitialized"
  input: "g_embedding_support_vectors/Module_2/Conv2d_Module_2/BatchNorm/moving_mean"
  attr {
    key: "_class"
    value {
      list {
        s: "loc:@g_embedding_support_vectors/Module_2/Conv2d_Module_2/BatchNorm/moving_mean"
      }
    }
  }
  attr {
    key: "_output_shapes"
    value {
      list {
        shape {
        }
      }
    }
  }
  attr {
    key: "dtype"
    value {
      type: DT_FLOAT
    }
  }
}
node {
  name: "init_ops/report_uninitialized_variables/IsVariableInitialized_11"
  op: "IsVariableInitialized"
  input: "g_embedding_support_vectors/Module_2/Conv2d_Module_2/BatchNorm/moving_variance"
  attr {
    key: "_class"
    value {
      list {
        s: "loc:@g_embedding_support_vectors/Module_2/Conv2d_Module_2/BatchNorm/moving_variance"
      }
    }
  }
  attr {
    key: "_output_shapes"
    value {
      list {
        shape {
        }
      }
    }
  }
  attr {
    key: "dtype"
    value {
      type: DT_FLOAT
    }
  }
}
node {
  name: "init_ops/report_uninitialized_variables/IsVariableInitialized_12"
  op: "IsVariableInitialized"
  input: "g_embedding_support_vectors/Module_3/Conv2d_Module_3/weights"
  attr {
    key: "_class"
    value {
      list {
        s: "loc:@g_embedding_support_vectors/Module_3/Conv2d_Module_3/weights"
      }
    }
  }
  attr {
    key: "_output_shapes"
    value {
      list {
        shape {
        }
      }
    }
  }
  attr {
    key: "dtype"
    value {
      type: DT_FLOAT
    }
  }
}
node {
  name: "init_ops/report_uninitialized_variables/IsVariableInitialized_13"
  op: "IsVariableInitialized"
  input: "g_embedding_support_vectors/Module_3/Conv2d_Module_3/BatchNorm/beta"
  attr {
    key: "_class"
    value {
      list {
        s: "loc:@g_embedding_support_vectors/Module_3/Conv2d_Module_3/BatchNorm/beta"
      }
    }
  }
  attr {
    key: "_output_shapes"
    value {
      list {
        shape {
        }
      }
    }
  }
  attr {
    key: "dtype"
    value {
      type: DT_FLOAT
    }
  }
}
node {
  name: "init_ops/report_uninitialized_variables/IsVariableInitialized_14"
  op: "IsVariableInitialized"
  input: "g_embedding_support_vectors/Module_3/Conv2d_Module_3/BatchNorm/moving_mean"
  attr {
    key: "_class"
    value {
      list {
        s: "loc:@g_embedding_support_vectors/Module_3/Conv2d_Module_3/BatchNorm/moving_mean"
      }
    }
  }
  attr {
    key: "_output_shapes"
    value {
      list {
        shape {
        }
      }
    }
  }
  attr {
    key: "dtype"
    value {
      type: DT_FLOAT
    }
  }
}
node {
  name: "init_ops/report_uninitialized_variables/IsVariableInitialized_15"
  op: "IsVariableInitialized"
  input: "g_embedding_support_vectors/Module_3/Conv2d_Module_3/BatchNorm/moving_variance"
  attr {
    key: "_class"
    value {
      list {
        s: "loc:@g_embedding_support_vectors/Module_3/Conv2d_Module_3/BatchNorm/moving_variance"
      }
    }
  }
  attr {
    key: "_output_shapes"
    value {
      list {
        shape {
        }
      }
    }
  }
  attr {
    key: "dtype"
    value {
      type: DT_FLOAT
    }
  }
}
node {
  name: "init_ops/report_uninitialized_variables/IsVariableInitialized_16"
  op: "IsVariableInitialized"
  input: "fce_embedding_g/weights"
  attr {
    key: "_class"
    value {
      list {
        s: "loc:@fce_embedding_g/weights"
      }
    }
  }
  attr {
    key: "_output_shapes"
    value {
      list {
        shape {
        }
      }
    }
  }
  attr {
    key: "dtype"
    value {
      type: DT_FLOAT
    }
  }
}
node {
  name: "init_ops/report_uninitialized_variables/IsVariableInitialized_17"
  op: "IsVariableInitialized"
  input: "fce_embedding_g/BiRNN/FW/LSTMCell/W_0"
  attr {
    key: "_class"
    value {
      list {
        s: "loc:@fce_embedding_g/BiRNN/FW/LSTMCell/W_0"
      }
    }
  }
  attr {
    key: "_output_shapes"
    value {
      list {
        shape {
        }
      }
    }
  }
  attr {
    key: "dtype"
    value {
      type: DT_FLOAT
    }
  }
}
node {
  name: "init_ops/report_uninitialized_variables/IsVariableInitialized_18"
  op: "IsVariableInitialized"
  input: "fce_embedding_g/BiRNN/FW/LSTMCell/B"
  attr {
    key: "_class"
    value {
      list {
        s: "loc:@fce_embedding_g/BiRNN/FW/LSTMCell/B"
      }
    }
  }
  attr {
    key: "_output_shapes"
    value {
      list {
        shape {
        }
      }
    }
  }
  attr {
    key: "dtype"
    value {
      type: DT_FLOAT
    }
  }
}
node {
  name: "init_ops/report_uninitialized_variables/IsVariableInitialized_19"
  op: "IsVariableInitialized"
  input: "fce_embedding_g/BiRNN/FW/LSTMCell/W_F_diag"
  attr {
    key: "_class"
    value {
      list {
        s: "loc:@fce_embedding_g/BiRNN/FW/LSTMCell/W_F_diag"
      }
    }
  }
  attr {
    key: "_output_shapes"
    value {
      list {
        shape {
        }
      }
    }
  }
  attr {
    key: "dtype"
    value {
      type: DT_FLOAT
    }
  }
}
node {
  name: "init_ops/report_uninitialized_variables/IsVariableInitialized_20"
  op: "IsVariableInitialized"
  input: "fce_embedding_g/BiRNN/FW/LSTMCell/W_I_diag"
  attr {
    key: "_class"
    value {
      list {
        s: "loc:@fce_embedding_g/BiRNN/FW/LSTMCell/W_I_diag"
      }
    }
  }
  attr {
    key: "_output_shapes"
    value {
      list {
        shape {
        }
      }
    }
  }
  attr {
    key: "dtype"
    value {
      type: DT_FLOAT
    }
  }
}
node {
  name: "init_ops/report_uninitialized_variables/IsVariableInitialized_21"
  op: "IsVariableInitialized"
  input: "fce_embedding_g/BiRNN/FW/LSTMCell/W_O_diag"
  attr {
    key: "_class"
    value {
      list {
        s: "loc:@fce_embedding_g/BiRNN/FW/LSTMCell/W_O_diag"
      }
    }
  }
  attr {
    key: "_output_shapes"
    value {
      list {
        shape {
        }
      }
    }
  }
  attr {
    key: "dtype"
    value {
      type: DT_FLOAT
    }
  }
}
node {
  name: "init_ops/report_uninitialized_variables/IsVariableInitialized_22"
  op: "IsVariableInitialized"
  input: "fce_embedding_g/BiRNN/BW/LSTMCell/W_0"
  attr {
    key: "_class"
    value {
      list {
        s: "loc:@fce_embedding_g/BiRNN/BW/LSTMCell/W_0"
      }
    }
  }
  attr {
    key: "_output_shapes"
    value {
      list {
        shape {
        }
      }
    }
  }
  attr {
    key: "dtype"
    value {
      type: DT_FLOAT
    }
  }
}
node {
  name: "init_ops/report_uninitialized_variables/IsVariableInitialized_23"
  op: "IsVariableInitialized"
  input: "fce_embedding_g/BiRNN/BW/LSTMCell/B"
  attr {
    key: "_class"
    value {
      list {
        s: "loc:@fce_embedding_g/BiRNN/BW/LSTMCell/B"
      }
    }
  }
  attr {
    key: "_output_shapes"
    value {
      list {
        shape {
        }
      }
    }
  }
  attr {
    key: "dtype"
    value {
      type: DT_FLOAT
    }
  }
}
node {
  name: "init_ops/report_uninitialized_variables/IsVariableInitialized_24"
  op: "IsVariableInitialized"
  input: "fce_embedding_g/BiRNN/BW/LSTMCell/W_F_diag"
  attr {
    key: "_class"
    value {
      list {
        s: "loc:@fce_embedding_g/BiRNN/BW/LSTMCell/W_F_diag"
      }
    }
  }
  attr {
    key: "_output_shapes"
    value {
      list {
        shape {
        }
      }
    }
  }
  attr {
    key: "dtype"
    value {
      type: DT_FLOAT
    }
  }
}
node {
  name: "init_ops/report_uninitialized_variables/IsVariableInitialized_25"
  op: "IsVariableInitialized"
  input: "fce_embedding_g/BiRNN/BW/LSTMCell/W_I_diag"
  attr {
    key: "_class"
    value {
      list {
        s: "loc:@fce_embedding_g/BiRNN/BW/LSTMCell/W_I_diag"
      }
    }
  }
  attr {
    key: "_output_shapes"
    value {
      list {
        shape {
        }
      }
    }
  }
  attr {
    key: "dtype"
    value {
      type: DT_FLOAT
    }
  }
}
node {
  name: "init_ops/report_uninitialized_variables/IsVariableInitialized_26"
  op: "IsVariableInitialized"
  input: "fce_embedding_g/BiRNN/BW/LSTMCell/W_O_diag"
  attr {
    key: "_class"
    value {
      list {
        s: "loc:@fce_embedding_g/BiRNN/BW/LSTMCell/W_O_diag"
      }
    }
  }
  attr {
    key: "_output_shapes"
    value {
      list {
        shape {
        }
      }
    }
  }
  attr {
    key: "dtype"
    value {
      type: DT_FLOAT
    }
  }
}
node {
  name: "init_ops/report_uninitialized_variables/IsVariableInitialized_27"
  op: "IsVariableInitialized"
  input: "f_test_support_vector/Module_0/Conv2d_Module_0/weights"
  attr {
    key: "_class"
    value {
      list {
        s: "loc:@f_test_support_vector/Module_0/Conv2d_Module_0/weights"
      }
    }
  }
  attr {
    key: "_output_shapes"
    value {
      list {
        shape {
        }
      }
    }
  }
  attr {
    key: "dtype"
    value {
      type: DT_FLOAT
    }
  }
}
node {
  name: "init_ops/report_uninitialized_variables/IsVariableInitialized_28"
  op: "IsVariableInitialized"
  input: "f_test_support_vector/Module_0/Conv2d_Module_0/BatchNorm/beta"
  attr {
    key: "_class"
    value {
      list {
        s: "loc:@f_test_support_vector/Module_0/Conv2d_Module_0/BatchNorm/beta"
      }
    }
  }
  attr {
    key: "_output_shapes"
    value {
      list {
        shape {
        }
      }
    }
  }
  attr {
    key: "dtype"
    value {
      type: DT_FLOAT
    }
  }
}
node {
  name: "init_ops/report_uninitialized_variables/IsVariableInitialized_29"
  op: "IsVariableInitialized"
  input: "f_test_support_vector/Module_0/Conv2d_Module_0/BatchNorm/moving_mean"
  attr {
    key: "_class"
    value {
      list {
        s: "loc:@f_test_support_vector/Module_0/Conv2d_Module_0/BatchNorm/moving_mean"
      }
    }
  }
  attr {
    key: "_output_shapes"
    value {
      list {
        shape {
        }
      }
    }
  }
  attr {
    key: "dtype"
    value {
      type: DT_FLOAT
    }
  }
}
node {
  name: "init_ops/report_uninitialized_variables/IsVariableInitialized_30"
  op: "IsVariableInitialized"
  input: "f_test_support_vector/Module_0/Conv2d_Module_0/BatchNorm/moving_variance"
  attr {
    key: "_class"
    value {
      list {
        s: "loc:@f_test_support_vector/Module_0/Conv2d_Module_0/BatchNorm/moving_variance"
      }
    }
  }
  attr {
    key: "_output_shapes"
    value {
      list {
        shape {
        }
      }
    }
  }
  attr {
    key: "dtype"
    value {
      type: DT_FLOAT
    }
  }
}
node {
  name: "init_ops/report_uninitialized_variables/IsVariableInitialized_31"
  op: "IsVariableInitialized"
  input: "f_test_support_vector/Module_1/Conv2d_Module_1/weights"
  attr {
    key: "_class"
    value {
      list {
        s: "loc:@f_test_support_vector/Module_1/Conv2d_Module_1/weights"
      }
    }
  }
  attr {
    key: "_output_shapes"
    value {
      list {
        shape {
        }
      }
    }
  }
  attr {
    key: "dtype"
    value {
      type: DT_FLOAT
    }
  }
}
node {
  name: "init_ops/report_uninitialized_variables/IsVariableInitialized_32"
  op: "IsVariableInitialized"
  input: "f_test_support_vector/Module_1/Conv2d_Module_1/BatchNorm/beta"
  attr {
    key: "_class"
    value {
      list {
        s: "loc:@f_test_support_vector/Module_1/Conv2d_Module_1/BatchNorm/beta"
      }
    }
  }
  attr {
    key: "_output_shapes"
    value {
      list {
        shape {
        }
      }
    }
  }
  attr {
    key: "dtype"
    value {
      type: DT_FLOAT
    }
  }
}
node {
  name: "init_ops/report_uninitialized_variables/IsVariableInitialized_33"
  op: "IsVariableInitialized"
  input: "f_test_support_vector/Module_1/Conv2d_Module_1/BatchNorm/moving_mean"
  attr {
    key: "_class"
    value {
      list {
        s: "loc:@f_test_support_vector/Module_1/Conv2d_Module_1/BatchNorm/moving_mean"
      }
    }
  }
  attr {
    key: "_output_shapes"
    value {
      list {
        shape {
        }
      }
    }
  }
  attr {
    key: "dtype"
    value {
      type: DT_FLOAT
    }
  }
}
node {
  name: "init_ops/report_uninitialized_variables/IsVariableInitialized_34"
  op: "IsVariableInitialized"
  input: "f_test_support_vector/Module_1/Conv2d_Module_1/BatchNorm/moving_variance"
  attr {
    key: "_class"
    value {
      list {
        s: "loc:@f_test_support_vector/Module_1/Conv2d_Module_1/BatchNorm/moving_variance"
      }
    }
  }
  attr {
    key: "_output_shapes"
    value {
      list {
        shape {
        }
      }
    }
  }
  attr {
    key: "dtype"
    value {
      type: DT_FLOAT
    }
  }
}
node {
  name: "init_ops/report_uninitialized_variables/IsVariableInitialized_35"
  op: "IsVariableInitialized"
  input: "f_test_support_vector/Module_2/Conv2d_Module_2/weights"
  attr {
    key: "_class"
    value {
      list {
        s: "loc:@f_test_support_vector/Module_2/Conv2d_Module_2/weights"
      }
    }
  }
  attr {
    key: "_output_shapes"
    value {
      list {
        shape {
        }
      }
    }
  }
  attr {
    key: "dtype"
    value {
      type: DT_FLOAT
    }
  }
}
node {
  name: "init_ops/report_uninitialized_variables/IsVariableInitialized_36"
  op: "IsVariableInitialized"
  input: "f_test_support_vector/Module_2/Conv2d_Module_2/BatchNorm/beta"
  attr {
    key: "_class"
    value {
      list {
        s: "loc:@f_test_support_vector/Module_2/Conv2d_Module_2/BatchNorm/beta"
      }
    }
  }
  attr {
    key: "_output_shapes"
    value {
      list {
        shape {
        }
      }
    }
  }
  attr {
    key: "dtype"
    value {
      type: DT_FLOAT
    }
  }
}
node {
  name: "init_ops/report_uninitialized_variables/IsVariableInitialized_37"
  op: "IsVariableInitialized"
  input: "f_test_support_vector/Module_2/Conv2d_Module_2/BatchNorm/moving_mean"
  attr {
    key: "_class"
    value {
      list {
        s: "loc:@f_test_support_vector/Module_2/Conv2d_Module_2/BatchNorm/moving_mean"
      }
    }
  }
  attr {
    key: "_output_shapes"
    value {
      list {
        shape {
        }
      }
    }
  }
  attr {
    key: "dtype"
    value {
      type: DT_FLOAT
    }
  }
}
node {
  name: "init_ops/report_uninitialized_variables/IsVariableInitialized_38"
  op: "IsVariableInitialized"
  input: "f_test_support_vector/Module_2/Conv2d_Module_2/BatchNorm/moving_variance"
  attr {
    key: "_class"
    value {
      list {
        s: "loc:@f_test_support_vector/Module_2/Conv2d_Module_2/BatchNorm/moving_variance"
      }
    }
  }
  attr {
    key: "_output_shapes"
    value {
      list {
        shape {
        }
      }
    }
  }
  attr {
    key: "dtype"
    value {
      type: DT_FLOAT
    }
  }
}
node {
  name: "init_ops/report_uninitialized_variables/IsVariableInitialized_39"
  op: "IsVariableInitialized"
  input: "f_test_support_vector/Module_3/Conv2d_Module_3/weights"
  attr {
    key: "_class"
    value {
      list {
        s: "loc:@f_test_support_vector/Module_3/Conv2d_Module_3/weights"
      }
    }
  }
  attr {
    key: "_output_shapes"
    value {
      list {
        shape {
        }
      }
    }
  }
  attr {
    key: "dtype"
    value {
      type: DT_FLOAT
    }
  }
}
node {
  name: "init_ops/report_uninitialized_variables/IsVariableInitialized_40"
  op: "IsVariableInitialized"
  input: "f_test_support_vector/Module_3/Conv2d_Module_3/BatchNorm/beta"
  attr {
    key: "_class"
    value {
      list {
        s: "loc:@f_test_support_vector/Module_3/Conv2d_Module_3/BatchNorm/beta"
      }
    }
  }
  attr {
    key: "_output_shapes"
    value {
      list {
        shape {
        }
      }
    }
  }
  attr {
    key: "dtype"
    value {
      type: DT_FLOAT
    }
  }
}
node {
  name: "init_ops/report_uninitialized_variables/IsVariableInitialized_41"
  op: "IsVariableInitialized"
  input: "f_test_support_vector/Module_3/Conv2d_Module_3/BatchNorm/moving_mean"
  attr {
    key: "_class"
    value {
      list {
        s: "loc:@f_test_support_vector/Module_3/Conv2d_Module_3/BatchNorm/moving_mean"
      }
    }
  }
  attr {
    key: "_output_shapes"
    value {
      list {
        shape {
        }
      }
    }
  }
  attr {
    key: "dtype"
    value {
      type: DT_FLOAT
    }
  }
}
node {
  name: "init_ops/report_uninitialized_variables/IsVariableInitialized_42"
  op: "IsVariableInitialized"
  input: "f_test_support_vector/Module_3/Conv2d_Module_3/BatchNorm/moving_variance"
  attr {
    key: "_class"
    value {
      list {
        s: "loc:@f_test_support_vector/Module_3/Conv2d_Module_3/BatchNorm/moving_variance"
      }
    }
  }
  attr {
    key: "_output_shapes"
    value {
      list {
        shape {
        }
      }
    }
  }
  attr {
    key: "dtype"
    value {
      type: DT_FLOAT
    }
  }
}
node {
  name: "init_ops/report_uninitialized_variables/IsVariableInitialized_43"
  op: "IsVariableInitialized"
  input: "fce_embedding_f/weights"
  attr {
    key: "_class"
    value {
      list {
        s: "loc:@fce_embedding_f/weights"
      }
    }
  }
  attr {
    key: "_output_shapes"
    value {
      list {
        shape {
        }
      }
    }
  }
  attr {
    key: "dtype"
    value {
      type: DT_FLOAT
    }
  }
}
node {
  name: "init_ops/report_uninitialized_variables/IsVariableInitialized_44"
  op: "IsVariableInitialized"
  input: "fce_embedding_f/LSTMCell/W_0"
  attr {
    key: "_class"
    value {
      list {
        s: "loc:@fce_embedding_f/LSTMCell/W_0"
      }
    }
  }
  attr {
    key: "_output_shapes"
    value {
      list {
        shape {
        }
      }
    }
  }
  attr {
    key: "dtype"
    value {
      type: DT_FLOAT
    }
  }
}
node {
  name: "init_ops/report_uninitialized_variables/IsVariableInitialized_45"
  op: "IsVariableInitialized"
  input: "fce_embedding_f/LSTMCell/B"
  attr {
    key: "_class"
    value {
      list {
        s: "loc:@fce_embedding_f/LSTMCell/B"
      }
    }
  }
  attr {
    key: "_output_shapes"
    value {
      list {
        shape {
        }
      }
    }
  }
  attr {
    key: "dtype"
    value {
      type: DT_FLOAT
    }
  }
}
node {
  name: "init_ops/report_uninitialized_variables/IsVariableInitialized_46"
  op: "IsVariableInitialized"
  input: "fce_embedding_f/LSTMCell/W_F_diag"
  attr {
    key: "_class"
    value {
      list {
        s: "loc:@fce_embedding_f/LSTMCell/W_F_diag"
      }
    }
  }
  attr {
    key: "_output_shapes"
    value {
      list {
        shape {
        }
      }
    }
  }
  attr {
    key: "dtype"
    value {
      type: DT_FLOAT
    }
  }
}
node {
  name: "init_ops/report_uninitialized_variables/IsVariableInitialized_47"
  op: "IsVariableInitialized"
  input: "fce_embedding_f/LSTMCell/W_I_diag"
  attr {
    key: "_class"
    value {
      list {
        s: "loc:@fce_embedding_f/LSTMCell/W_I_diag"
      }
    }
  }
  attr {
    key: "_output_shapes"
    value {
      list {
        shape {
        }
      }
    }
  }
  attr {
    key: "dtype"
    value {
      type: DT_FLOAT
    }
  }
}
node {
  name: "init_ops/report_uninitialized_variables/IsVariableInitialized_48"
  op: "IsVariableInitialized"
  input: "fce_embedding_f/LSTMCell/W_O_diag"
  attr {
    key: "_class"
    value {
      list {
        s: "loc:@fce_embedding_f/LSTMCell/W_O_diag"
      }
    }
  }
  attr {
    key: "_output_shapes"
    value {
      list {
        shape {
        }
      }
    }
  }
  attr {
    key: "dtype"
    value {
      type: DT_FLOAT
    }
  }
}
node {
  name: "init_ops/report_uninitialized_variables/IsVariableInitialized_49"
  op: "IsVariableInitialized"
  input: "global_step"
  attr {
    key: "_class"
    value {
      list {
        s: "loc:@global_step"
      }
    }
  }
  attr {
    key: "_output_shapes"
    value {
      list {
        shape {
        }
      }
    }
  }
  attr {
    key: "dtype"
    value {
      type: DT_INT32
    }
  }
}
node {
  name: "init_ops/report_uninitialized_variables/pack"
  op: "Pack"
  input: "init_ops/report_uninitialized_variables/IsVariableInitialized"
  input: "init_ops/report_uninitialized_variables/IsVariableInitialized_1"
  input: "init_ops/report_uninitialized_variables/IsVariableInitialized_2"
  input: "init_ops/report_uninitialized_variables/IsVariableInitialized_3"
  input: "init_ops/report_uninitialized_variables/IsVariableInitialized_4"
  input: "init_ops/report_uninitialized_variables/IsVariableInitialized_5"
  input: "init_ops/report_uninitialized_variables/IsVariableInitialized_6"
  input: "init_ops/report_uninitialized_variables/IsVariableInitialized_7"
  input: "init_ops/report_uninitialized_variables/IsVariableInitialized_8"
  input: "init_ops/report_uninitialized_variables/IsVariableInitialized_9"
  input: "init_ops/report_uninitialized_variables/IsVariableInitialized_10"
  input: "init_ops/report_uninitialized_variables/IsVariableInitialized_11"
  input: "init_ops/report_uninitialized_variables/IsVariableInitialized_12"
  input: "init_ops/report_uninitialized_variables/IsVariableInitialized_13"
  input: "init_ops/report_uninitialized_variables/IsVariableInitialized_14"
  input: "init_ops/report_uninitialized_variables/IsVariableInitialized_15"
  input: "init_ops/report_uninitialized_variables/IsVariableInitialized_16"
  input: "init_ops/report_uninitialized_variables/IsVariableInitialized_17"
  input: "init_ops/report_uninitialized_variables/IsVariableInitialized_18"
  input: "init_ops/report_uninitialized_variables/IsVariableInitialized_19"
  input: "init_ops/report_uninitialized_variables/IsVariableInitialized_20"
  input: "init_ops/report_uninitialized_variables/IsVariableInitialized_21"
  input: "init_ops/report_uninitialized_variables/IsVariableInitialized_22"
  input: "init_ops/report_uninitialized_variables/IsVariableInitialized_23"
  input: "init_ops/report_uninitialized_variables/IsVariableInitialized_24"
  input: "init_ops/report_uninitialized_variables/IsVariableInitialized_25"
  input: "init_ops/report_uninitialized_variables/IsVariableInitialized_26"
  input: "init_ops/report_uninitialized_variables/IsVariableInitialized_27"
  input: "init_ops/report_uninitialized_variables/IsVariableInitialized_28"
  input: "init_ops/report_uninitialized_variables/IsVariableInitialized_29"
  input: "init_ops/report_uninitialized_variables/IsVariableInitialized_30"
  input: "init_ops/report_uninitialized_variables/IsVariableInitialized_31"
  input: "init_ops/report_uninitialized_variables/IsVariableInitialized_32"
  input: "init_ops/report_uninitialized_variables/IsVariableInitialized_33"
  input: "init_ops/report_uninitialized_variables/IsVariableInitialized_34"
  input: "init_ops/report_uninitialized_variables/IsVariableInitialized_35"
  input: "init_ops/report_uninitialized_variables/IsVariableInitialized_36"
  input: "init_ops/report_uninitialized_variables/IsVariableInitialized_37"
  input: "init_ops/report_uninitialized_variables/IsVariableInitialized_38"
  input: "init_ops/report_uninitialized_variables/IsVariableInitialized_39"
  input: "init_ops/report_uninitialized_variables/IsVariableInitialized_40"
  input: "init_ops/report_uninitialized_variables/IsVariableInitialized_41"
  input: "init_ops/report_uninitialized_variables/IsVariableInitialized_42"
  input: "init_ops/report_uninitialized_variables/IsVariableInitialized_43"
  input: "init_ops/report_uninitialized_variables/IsVariableInitialized_44"
  input: "init_ops/report_uninitialized_variables/IsVariableInitialized_45"
  input: "init_ops/report_uninitialized_variables/IsVariableInitialized_46"
  input: "init_ops/report_uninitialized_variables/IsVariableInitialized_47"
  input: "init_ops/report_uninitialized_variables/IsVariableInitialized_48"
  input: "init_ops/report_uninitialized_variables/IsVariableInitialized_49"
  attr {
    key: "N"
    value {
      i: 50
    }
  }
  attr {
    key: "T"
    value {
      type: DT_BOOL
    }
  }
  attr {
    key: "_output_shapes"
    value {
      list {
        shape {
          dim {
            size: 50
          }
        }
      }
    }
  }
  attr {
    key: "axis"
    value {
      i: 0
    }
  }
}
node {
  name: "init_ops/report_uninitialized_variables/LogicalNot"
  op: "LogicalNot"
  input: "init_ops/report_uninitialized_variables/pack"
  attr {
    key: "_output_shapes"
    value {
      list {
        shape {
          dim {
            size: 50
          }
        }
      }
    }
  }
}
node {
  name: "init_ops/report_uninitialized_variables/Const"
  op: "Const"
  attr {
    key: "_output_shapes"
    value {
      list {
        shape {
          dim {
            size: 50
          }
        }
      }
    }
  }
  attr {
    key: "dtype"
    value {
      type: DT_STRING
    }
  }
  attr {
    key: "value"
    value {
      tensor {
        dtype: DT_STRING
        tensor_shape {
          dim {
            size: 50
          }
        }
        string_val: "g_embedding_support_vectors/Module_0/Conv2d_Module_0/weights"
        string_val: "g_embedding_support_vectors/Module_0/Conv2d_Module_0/BatchNorm/beta"
        string_val: "g_embedding_support_vectors/Module_0/Conv2d_Module_0/BatchNorm/moving_mean"
        string_val: "g_embedding_support_vectors/Module_0/Conv2d_Module_0/BatchNorm/moving_variance"
        string_val: "g_embedding_support_vectors/Module_1/Conv2d_Module_1/weights"
        string_val: "g_embedding_support_vectors/Module_1/Conv2d_Module_1/BatchNorm/beta"
        string_val: "g_embedding_support_vectors/Module_1/Conv2d_Module_1/BatchNorm/moving_mean"
        string_val: "g_embedding_support_vectors/Module_1/Conv2d_Module_1/BatchNorm/moving_variance"
        string_val: "g_embedding_support_vectors/Module_2/Conv2d_Module_2/weights"
        string_val: "g_embedding_support_vectors/Module_2/Conv2d_Module_2/BatchNorm/beta"
        string_val: "g_embedding_support_vectors/Module_2/Conv2d_Module_2/BatchNorm/moving_mean"
        string_val: "g_embedding_support_vectors/Module_2/Conv2d_Module_2/BatchNorm/moving_variance"
        string_val: "g_embedding_support_vectors/Module_3/Conv2d_Module_3/weights"
        string_val: "g_embedding_support_vectors/Module_3/Conv2d_Module_3/BatchNorm/beta"
        string_val: "g_embedding_support_vectors/Module_3/Conv2d_Module_3/BatchNorm/moving_mean"
        string_val: "g_embedding_support_vectors/Module_3/Conv2d_Module_3/BatchNorm/moving_variance"
        string_val: "fce_embedding_g/weights"
        string_val: "fce_embedding_g/BiRNN/FW/LSTMCell/W_0"
        string_val: "fce_embedding_g/BiRNN/FW/LSTMCell/B"
        string_val: "fce_embedding_g/BiRNN/FW/LSTMCell/W_F_diag"
        string_val: "fce_embedding_g/BiRNN/FW/LSTMCell/W_I_diag"
        string_val: "fce_embedding_g/BiRNN/FW/LSTMCell/W_O_diag"
        string_val: "fce_embedding_g/BiRNN/BW/LSTMCell/W_0"
        string_val: "fce_embedding_g/BiRNN/BW/LSTMCell/B"
        string_val: "fce_embedding_g/BiRNN/BW/LSTMCell/W_F_diag"
        string_val: "fce_embedding_g/BiRNN/BW/LSTMCell/W_I_diag"
        string_val: "fce_embedding_g/BiRNN/BW/LSTMCell/W_O_diag"
        string_val: "f_test_support_vector/Module_0/Conv2d_Module_0/weights"
        string_val: "f_test_support_vector/Module_0/Conv2d_Module_0/BatchNorm/beta"
        string_val: "f_test_support_vector/Module_0/Conv2d_Module_0/BatchNorm/moving_mean"
        string_val: "f_test_support_vector/Module_0/Conv2d_Module_0/BatchNorm/moving_variance"
        string_val: "f_test_support_vector/Module_1/Conv2d_Module_1/weights"
        string_val: "f_test_support_vector/Module_1/Conv2d_Module_1/BatchNorm/beta"
        string_val: "f_test_support_vector/Module_1/Conv2d_Module_1/BatchNorm/moving_mean"
        string_val: "f_test_support_vector/Module_1/Conv2d_Module_1/BatchNorm/moving_variance"
        string_val: "f_test_support_vector/Module_2/Conv2d_Module_2/weights"
        string_val: "f_test_support_vector/Module_2/Conv2d_Module_2/BatchNorm/beta"
        string_val: "f_test_support_vector/Module_2/Conv2d_Module_2/BatchNorm/moving_mean"
        string_val: "f_test_support_vector/Module_2/Conv2d_Module_2/BatchNorm/moving_variance"
        string_val: "f_test_support_vector/Module_3/Conv2d_Module_3/weights"
        string_val: "f_test_support_vector/Module_3/Conv2d_Module_3/BatchNorm/beta"
        string_val: "f_test_support_vector/Module_3/Conv2d_Module_3/BatchNorm/moving_mean"
        string_val: "f_test_support_vector/Module_3/Conv2d_Module_3/BatchNorm/moving_variance"
        string_val: "fce_embedding_f/weights"
        string_val: "fce_embedding_f/LSTMCell/W_0"
        string_val: "fce_embedding_f/LSTMCell/B"
        string_val: "fce_embedding_f/LSTMCell/W_F_diag"
        string_val: "fce_embedding_f/LSTMCell/W_I_diag"
        string_val: "fce_embedding_f/LSTMCell/W_O_diag"
        string_val: "global_step"
      }
    }
  }
}
node {
  name: "init_ops/report_uninitialized_variables/boolean_mask/Shape"
  op: "Const"
  attr {
    key: "_output_shapes"
    value {
      list {
        shape {
          dim {
            size: 1
          }
        }
      }
    }
  }
  attr {
    key: "dtype"
    value {
      type: DT_INT32
    }
  }
  attr {
    key: "value"
    value {
      tensor {
        dtype: DT_INT32
        tensor_shape {
          dim {
            size: 1
          }
        }
        int_val: 50
      }
    }
  }
}
node {
  name: "init_ops/report_uninitialized_variables/boolean_mask/strided_slice/pack"
  op: "Const"
  attr {
    key: "_output_shapes"
    value {
      list {
        shape {
          dim {
            size: 1
          }
        }
      }
    }
  }
  attr {
    key: "dtype"
    value {
      type: DT_INT32
    }
  }
  attr {
    key: "value"
    value {
      tensor {
        dtype: DT_INT32
        tensor_shape {
          dim {
            size: 1
          }
        }
        int_val: 1
      }
    }
  }
}
node {
  name: "init_ops/report_uninitialized_variables/boolean_mask/strided_slice/pack_1"
  op: "Const"
  attr {
    key: "_output_shapes"
    value {
      list {
        shape {
          dim {
            size: 1
          }
        }
      }
    }
  }
  attr {
    key: "dtype"
    value {
      type: DT_INT32
    }
  }
  attr {
    key: "value"
    value {
      tensor {
        dtype: DT_INT32
        tensor_shape {
          dim {
            size: 1
          }
        }
        int_val: 0
      }
    }
  }
}
node {
  name: "init_ops/report_uninitialized_variables/boolean_mask/strided_slice/pack_2"
  op: "Const"
  attr {
    key: "_output_shapes"
    value {
      list {
        shape {
          dim {
            size: 1
          }
        }
      }
    }
  }
  attr {
    key: "dtype"
    value {
      type: DT_INT32
    }
  }
  attr {
    key: "value"
    value {
      tensor {
        dtype: DT_INT32
        tensor_shape {
          dim {
            size: 1
          }
        }
        int_val: 1
      }
    }
  }
}
node {
  name: "init_ops/report_uninitialized_variables/boolean_mask/strided_slice"
  op: "StridedSlice"
  input: "init_ops/report_uninitialized_variables/boolean_mask/Shape"
  input: "init_ops/report_uninitialized_variables/boolean_mask/strided_slice/pack"
  input: "init_ops/report_uninitialized_variables/boolean_mask/strided_slice/pack_1"
  input: "init_ops/report_uninitialized_variables/boolean_mask/strided_slice/pack_2"
  attr {
    key: "Index"
    value {
      type: DT_INT32
    }
  }
  attr {
    key: "T"
    value {
      type: DT_INT32
    }
  }
  attr {
    key: "_output_shapes"
    value {
      list {
        shape {
          dim {
          }
        }
      }
    }
  }
  attr {
    key: "begin_mask"
    value {
      i: 0
    }
  }
  attr {
    key: "ellipsis_mask"
    value {
      i: 0
    }
  }
  attr {
    key: "end_mask"
    value {
      i: 1
    }
  }
  attr {
    key: "new_axis_mask"
    value {
      i: 0
    }
  }
  attr {
    key: "shrink_axis_mask"
    value {
      i: 0
    }
  }
}
node {
  name: "init_ops/report_uninitialized_variables/boolean_mask/concat/concat_dim"
  op: "Const"
  attr {
    key: "_output_shapes"
    value {
      list {
        shape {
        }
      }
    }
  }
  attr {
    key: "dtype"
    value {
      type: DT_INT32
    }
  }
  attr {
    key: "value"
    value {
      tensor {
        dtype: DT_INT32
        tensor_shape {
        }
        int_val: 0
      }
    }
  }
}
node {
  name: "init_ops/report_uninitialized_variables/boolean_mask/concat/values_0"
  op: "Const"
  attr {
    key: "_output_shapes"
    value {
      list {
        shape {
          dim {
            size: 1
          }
        }
      }
    }
  }
  attr {
    key: "dtype"
    value {
      type: DT_INT32
    }
  }
  attr {
    key: "value"
    value {
      tensor {
        dtype: DT_INT32
        tensor_shape {
          dim {
            size: 1
          }
        }
        int_val: -1
      }
    }
  }
}
node {
  name: "init_ops/report_uninitialized_variables/boolean_mask/concat"
  op: "Concat"
  input: "init_ops/report_uninitialized_variables/boolean_mask/concat/concat_dim"
  input: "init_ops/report_uninitialized_variables/boolean_mask/concat/values_0"
  input: "init_ops/report_uninitialized_variables/boolean_mask/strided_slice"
  attr {
    key: "N"
    value {
      i: 2
    }
  }
  attr {
    key: "T"
    value {
      type: DT_INT32
    }
  }
  attr {
    key: "_output_shapes"
    value {
      list {
        shape {
          dim {
            size: 1
          }
        }
      }
    }
  }
}
node {
  name: "init_ops/report_uninitialized_variables/boolean_mask/Reshape"
  op: "Reshape"
  input: "init_ops/report_uninitialized_variables/Const"
  input: "init_ops/report_uninitialized_variables/boolean_mask/concat"
  attr {
    key: "T"
    value {
      type: DT_STRING
    }
  }
  attr {
    key: "Tshape"
    value {
      type: DT_INT32
    }
  }
  attr {
    key: "_output_shapes"
    value {
      list {
        shape {
          dim {
            size: 50
          }
        }
      }
    }
  }
}
node {
  name: "init_ops/report_uninitialized_variables/boolean_mask/Reshape_1/shape"
  op: "Const"
  attr {
    key: "_output_shapes"
    value {
      list {
        shape {
          dim {
            size: 1
          }
        }
      }
    }
  }
  attr {
    key: "dtype"
    value {
      type: DT_INT32
    }
  }
  attr {
    key: "value"
    value {
      tensor {
        dtype: DT_INT32
        tensor_shape {
          dim {
            size: 1
          }
        }
        int_val: -1
      }
    }
  }
}
node {
  name: "init_ops/report_uninitialized_variables/boolean_mask/Reshape_1"
  op: "Reshape"
  input: "init_ops/report_uninitialized_variables/LogicalNot"
  input: "init_ops/report_uninitialized_variables/boolean_mask/Reshape_1/shape"
  attr {
    key: "T"
    value {
      type: DT_BOOL
    }
  }
  attr {
    key: "Tshape"
    value {
      type: DT_INT32
    }
  }
  attr {
    key: "_output_shapes"
    value {
      list {
        shape {
          dim {
            size: 50
          }
        }
      }
    }
  }
}
node {
  name: "init_ops/report_uninitialized_variables/boolean_mask/Where"
  op: "Where"
  input: "init_ops/report_uninitialized_variables/boolean_mask/Reshape_1"
  attr {
    key: "_output_shapes"
    value {
      list {
        shape {
          dim {
            size: -1
          }
          dim {
            size: 1
          }
        }
      }
    }
  }
}
node {
  name: "init_ops/report_uninitialized_variables/boolean_mask/Squeeze"
  op: "Squeeze"
  input: "init_ops/report_uninitialized_variables/boolean_mask/Where"
  attr {
    key: "T"
    value {
      type: DT_INT64
    }
  }
  attr {
    key: "_output_shapes"
    value {
      list {
        shape {
          dim {
            size: -1
          }
        }
      }
    }
  }
  attr {
    key: "squeeze_dims"
    value {
      list {
        i: 1
      }
    }
  }
}
node {
  name: "init_ops/report_uninitialized_variables/boolean_mask/Gather"
  op: "Gather"
  input: "init_ops/report_uninitialized_variables/boolean_mask/Reshape"
  input: "init_ops/report_uninitialized_variables/boolean_mask/Squeeze"
  attr {
    key: "Tindices"
    value {
      type: DT_INT64
    }
  }
  attr {
    key: "Tparams"
    value {
      type: DT_STRING
    }
  }
  attr {
    key: "_output_shapes"
    value {
      list {
        shape {
          dim {
            size: -1
          }
        }
      }
    }
  }
  attr {
    key: "validate_indices"
    value {
      b: true
    }
  }
}
node {
  name: "init_ops/init_1"
  op: "NoOp"
}
node {
  name: "init_ops/init_all_tables"
  op: "NoOp"
}
node {
  name: "init_ops/group_deps"
  op: "NoOp"
  input: "^init_ops/init_1"
  input: "^init_ops/init_all_tables"
}
node {
  name: "MergeSummary/MergeSummary"
  op: "MergeSummary"
  input: "g_embedding_support_vectors/g_embedding_support_vectors/Module_1/MaxPool_Module_1/MaxPool/activation_summary"
  input: "g_embedding_support_vectors/g_embedding_support_vectors/Module_0/MaxPool_Module_0/MaxPool/activation_summary"
  input: "g_embedding_support_vectors/g_embedding_support_vectors/Module_3/MaxPool_Module_3/MaxPool/activation_summary"
  input: "g_embedding_support_vectors/g_embedding_support_vectors/Module_2/MaxPool_Module_2/MaxPool/activation_summary"
  input: "f_test_support_vector/f_test_support_vector/Module_1/MaxPool_Module_1/MaxPool/activation_summary"
  input: "f_test_support_vector/f_test_support_vector/Module_0/MaxPool_Module_0/MaxPool/activation_summary"
  input: "f_test_support_vector/f_test_support_vector/Module_3/MaxPool_Module_3/MaxPool/activation_summary"
  input: "f_test_support_vector/f_test_support_vector/Module_2/MaxPool_Module_2/MaxPool/activation_summary"
  input: "ScalarSummary"
  input: "HistogramSummary"
  input: "HistogramSummary_1"
  input: "HistogramSummary_2"
  input: "HistogramSummary_3"
  input: "HistogramSummary_4"
  input: "HistogramSummary_5"
  input: "HistogramSummary_6"
  input: "HistogramSummary_7"
  input: "HistogramSummary_8"
  input: "HistogramSummary_9"
  input: "HistogramSummary_10"
  input: "HistogramSummary_11"
  input: "HistogramSummary_12"
  input: "HistogramSummary_13"
  input: "HistogramSummary_14"
  input: "HistogramSummary_15"
  input: "HistogramSummary_16"
  input: "HistogramSummary_17"
  input: "HistogramSummary_18"
  input: "HistogramSummary_19"
  input: "HistogramSummary_20"
  input: "HistogramSummary_21"
  input: "HistogramSummary_22"
  input: "HistogramSummary_23"
  input: "HistogramSummary_24"
  input: "HistogramSummary_25"
  input: "HistogramSummary_26"
  input: "HistogramSummary_27"
  input: "HistogramSummary_28"
  input: "HistogramSummary_29"
  input: "HistogramSummary_30"
  input: "HistogramSummary_31"
  input: "HistogramSummary_32"
  attr {
    key: "N"
    value {
      i: 42
    }
  }
  attr {
    key: "_output_shapes"
    value {
      list {
        shape {
        }
      }
    }
  }
}
node {
  name: "train_step/GreaterEqual/y"
  op: "Const"
  attr {
    key: "_output_shapes"
    value {
      list {
        shape {
        }
      }
    }
  }
  attr {
    key: "dtype"
    value {
      type: DT_INT32
    }
  }
  attr {
    key: "value"
    value {
      tensor {
        dtype: DT_INT32
        tensor_shape {
        }
        int_val: 1000000
      }
    }
  }
}
node {
  name: "train_step/GreaterEqual"
  op: "GreaterEqual"
  input: "global_step/read"
  input: "train_step/GreaterEqual/y"
  attr {
    key: "T"
    value {
      type: DT_INT32
    }
  }
  attr {
    key: "_output_shapes"
    value {
      list {
        shape {
        }
      }
    }
  }
}
node {
  name: "train_step/Mod/y"
  op: "Const"
  attr {
    key: "_output_shapes"
    value {
      list {
        shape {
        }
      }
    }
  }
  attr {
    key: "dtype"
    value {
      type: DT_INT32
    }
  }
  attr {
    key: "value"
    value {
      tensor {
        dtype: DT_INT32
        tensor_shape {
        }
        int_val: 1
      }
    }
  }
}
node {
  name: "train_step/Mod"
  op: "Mod"
  input: "global_step/read"
  input: "train_step/Mod/y"
  attr {
    key: "T"
    value {
      type: DT_INT32
    }
  }
  attr {
    key: "_output_shapes"
    value {
      list {
        shape {
        }
      }
    }
  }
}
node {
  name: "train_step/Equal/y"
  op: "Const"
  attr {
    key: "_output_shapes"
    value {
      list {
        shape {
        }
      }
    }
  }
  attr {
    key: "dtype"
    value {
      type: DT_INT32
    }
  }
  attr {
    key: "value"
    value {
      tensor {
        dtype: DT_INT32
        tensor_shape {
        }
        int_val: 0
      }
    }
  }
}
node {
  name: "train_step/Equal"
  op: "Equal"
  input: "train_step/Mod"
  input: "train_step/Equal/y"
  attr {
    key: "T"
    value {
      type: DT_INT32
    }
  }
  attr {
    key: "_output_shapes"
    value {
      list {
        shape {
        }
      }
    }
  }
}
versions {
  producer: 15
}
